models/win_predictor_mlp_benchmark.pt (torch, 958498 bytes, 19 tensors)

fc1.weight f4 [512, 135]
00000000: 7375 0d3e db92 0c3d 6227 bcbc 8780 913b
00000010: 1882 ab3d 7dae 6cbb 0c60 593d fcb4 0a3d
00000020: 196c 80bc 9c95 9abd ba4d 7b3c 8186 243e
00000030: 84bb 193c fd33 f03c abd5 973d f462 f43d
00000040: a767 82bd a1c5 44bd 95b2 4fbc 6d94 f53d
00000050: 7db1 83bc 0f51 1f3d b850 2d3d 5609 7bbd
00000060: 92f1 67bd 6ad6 de3d 0323 6f3e ff61 643c
00000070: 920f 0abd 0886 90bd 23d3 1d3b 7081 e63d
00000080: a1f2 da3d 57df 513c ea4a 463d f844 793d
00000090: b968 2dbc ceff 2fbc 2417 8a3d 7763 aabc
000000a0: 8a3f 78bc 989d 2a3e 407d 23bd 01de 5bbd
000000b0: c08e 503d ace4 653d 1642 583d 45da 803c
000000c0: 956c 073c 6304 203d 18b0 46bd 0b8c 76bd
000000d0: 0556 abbd e202 d03d 726f 4f3c 629d ac3d
000000e0: b447 f53d 5cb8 62bd 82e4 8d3d 57fe 1c3c
000000f0: 5198 f0bc 22f3 63bd f83e dcbb 3d40 fdb9
00000100: d695 3c3e 74d6 d1bd 9c46 a63d 2ab3 b43d
00000110: 7317 26bd 077b a43d de11 d33c 057a f3bc
00000120: 1db9 04bd 9f7b 423d 57a3 a1bd 6077 d9bb
00000130: fb64 b4bd 234e 86bd f269 88bd 3547 bd3c
00000140: ff28 1bbd c558 893c cb3f 513d 53ca 39bd
00000150: a800 e5bc b46e 78bd 8958 5abc b0e2 ad3d
00000160: 5e4b 49bd 4f35 a0bc 3a4d 133e 310d b5bd
00000170: 73df 81bd 7585 c1bd c4d5 ec3d 02de 9d3c
00000180: 8aec e2bc e1ce 77bc 3414 f83d c41b fb3c
00000190: 753a c13c f2bc ec3d 1cf9 4cbd 2a9f 59bc
000001a0: c32c e13d db1c c13d 7d50 09bd 5dbe 37bd
000001b0: e77e e6ba 0b88 823d b133 d33d 82e8 3c3d
000001c0: 3fde b43d 7ee9 de3b 73c7 2bbd ac16 a43c
000001d0: 1872 8e3d 51f9 513d 781b b1bb 19c5 8e3d
000001e0: 9b6c 7e3c 6d02 48bc f6df d03d aada 0f3b
000001f0: 36f3 ecbd 5c96 77bd 3f9c aa3c 675c 03bd
00000200: b9ae f03d 9774 dc3d 415f f2bc 8c52 1e3e
00000210: 4013 91bd 49a4 39bd 6a68 cbbc 27b2 173d
00000220: 11e4 63bd d89d 2ebd c5a0 b0bd 07b3 503d
00000230: 605b 59bd 7163 99bc 6dc2 afbc b902 323d
00000240: abfb 023d fe31 8e3c e3a7 793b 8a30 81bd
00000250: 2488 5cbd 8742 1a3d 8cd2 bf3d e17d e8bd
00000260: 9b5c 29bd 3757 8bbd 1acd 97bc 4f1e babd
00000270: 2195 af3d c80c ecbc 85c6 0bbc a9c9 5abc
00000280: e691 97bd 2a83 e53b aab0 2abc 2383 c1bc
00000290: baae b4bd b936 703c edff e33d 39c3 70bc
000002a0: 9287 e3bc e79d 223d 52e6 d63d eefb 5f3c
000002b0: b07b 0cbc d44a fdbd 5ee0 adbd c223 5cbd
000002c0: 1bec 203e 1503 5a3d 0fee ddbd 4b4f c13d
000002d0: 80cd 803d 455c 993d 3e30 403d dd54 ed3d
000002e0: a43b d53d 6a75 803d 6d27 453e 0fee 8a3d
000002f0: be6c a83c d2cf 73bd db64 653d 92f7 bb3c
00000300: e472 2dbc b46b 0bbb a539 01bd b3ef 13bd
00000310: 88b6 a6ba bf0d 603d 1e9f 6f3d 9498 65bd
00000320: 0a55 2ebd 6885 973d 3f4f 433d 5d1a 40bd
00000330: 9083 05bd b8cb 4d3d a26c 9c3d 5344 963c
00000340: 2711 463c ff60 ee3c 7782 2c3d 3ee3 c33b
00000350: 9f57 1bbd cbf2 233d c1f4 063d b4e6 8dbc
00000360: 6122 efbd 62d0 db3c 6f6a 8bbc 0f96 043e
00000370: e2b4 66bd 9627 35ba 8e70 44bc 7bbc 95bc
00000380: 7fed 883d 6fb3 95bd bf48 163d 6eaa 623d
00000390: e522 873d fe16 913d 9296 cc3c 32a3 0a3e
000003a0: 6ee2 32bd 59d0 b73c ed62 963d 9b74 3a3d
000003b0: 1d22 87bc 2191 eebc 6e52 babd 9104 70bc
000003c0: b31b 913d 1909 f4bc df40 04be a81a 8e3d
000003d0: 3ae2 c23d 8e17 183b b8c0 43bb 4a76 12be
000003e0: 6ae2 e93d e35e fa3d e1e9 a43d e7ab d63d
000003f0: 62fe 043e 87fd 6c3c ff1a 22ba edca 0d3d
0.13814335 0.03431974 -0.022967998 0.0044403705 0.08374423 -0.0036114745 0.053070113 0.033864006
-0.015676545 -0.07548067 0.015338356 0.16066934 0.009383086 0.029321665 0.07413801 0.11932936
-0.06367426 -0.048040036 -0.012676855 0.119912006 -0.016075844 0.038895663 0.042313308 -0.0612882
-0.056626864 0.1088074 0.233532 0.01393938 -0.033706255 -0.070568144 0.0024082146 0.11255157
0.10690809 0.012809596 0.048411287 0.06085679 -0.01058405 -0.010742141 0.06742695 -0.020799382
-0.015151868 0.1666168 -0.03991437 -0.053678516 0.050917387 0.05612628 0.0527974 0.015729079
0.008265634 0.039066684 -0.04850778 -0.06019215 -0.08366016 0.101568 0.012660848 0.08428456
0.11976567 -0.0553516 0.0692835 0.009582124 -0.029369505 -0.05565179 -0.0067213736 -0.00048303782
0.18416533 -0.10245982 0.081189364 0.08823235 -0.040549707 0.08031278 0.025765356 -0.02972127
-0.0324031 0.047481176 -0.07892483 -0.006636545 -0.08808323 -0.06557872 -0.066608325 0.023105243
-0.037880894 0.016765961 0.05108623 -0.045358967 -0.027954414 -0.06065245 -0.0133267725 0.08490503
-0.04914414 -0.01955667 0.14384928 -0.08840407 -0.06341448 -0.09449283 0.1156421 0.0192709
-0.027700681 -0.015125007 0.121132284 0.030652888 0.023587445 0.11559476 -0.050042257 -0.013282577
0.10994866 0.09429332 -0.033524025 -0.04485928 -0.0017585427 0.063736044 0.10312594 0.046120174
0.088314526 0.006802737 -0.041938256 0.020030342 0.069553554 0.051263157 -0.005404886 0.06971187
0.015528823 -0.01220761 0.10198967 0.0021950402 -0.11569826 -0.06044613 0.020826457 -0.032070544
0.11752076 0.10764425 -0.029586436 0.15461177 -0.0708375 -0.04532269 -0.024830062 0.037035134
-0.055637423 -0.042631 -0.08624414 0.050951984 -0.053065658 -0.018724175 -0.021455014 0.043459628
0.03197829 0.017357823 0.0038094453 -0.06308086 -0.05384077 0.0376611 0.093663305 -0.113521345
-0.04134808 -0.06803744 -0.018530417 -0.09087812 0.08573366 -0.028814688 -0.008531217 -0.013353744
-0.07400875 0.0070041614 -0.010418097 -0.023622101 -0.08822389 0.014661484 0.11132798 -0.014694982
-0.027774606 0.03970137 0.10493149 0.013670905 -0.008574411 -0.12367788 -0.0849006 -0.05374504
0.15715067 0.053225596 -0.10836422 0.09438952 0.06289196 0.07488302 0.046921007 0.11588452
0.10411766 0.06272395 0.19253321 0.06783687 0.020559665 -0.059524365 0.056004386 0.0229452
-0.010586474 -0.0021273913 -0.031549115 -0.036117267 -0.0012719193 0.05470061 0.058501355 -0.056053713
-0.04256157 0.07398492 0.047682997 -0.046900142 -0.03259617 0.05024311 0.076379076 0.018343126
0.01208905 0.029098986 0.04211661 0.005978017 -0.03792536 0.040026467 0.03294826 -0.017321922
-0.11676479 0.026832763 -0.017018525 0.12947868 -0.056324847 -0.0006910501 -0.011989726 -0.018278351
0.06685924 -0.07309615 0.03669047 0.055338316 0.065984525 0.070844635 0.024974141 0.13538817
-0.04367297 0.022438215 0.07343087 0.04552136 -0.016495759 -0.029121937 -0.090977535 -0.014649526
0.07085361 -0.029789494 -0.12915371 0.06938678 0.095158055 0.00232074 -0.0029869508 -0.14302936
0.11420138 0.122251295 0.08052421 0.104820065 0.12987664 0.0144647425 -0.00061838323 0.034617353

fc1.bias f4 [512]
00000000: ac24 3e38 84ad 32b6 863a a336 8806 fdb8
00000010: f8db d6b8 9bd4 8e37 1b7c ad38 0bc4 dbb8
00000020: f0da 91b7 82f4 1cb8 ae92 4ab9 c5ce d038
00000030: 04ca e3b8 98e8 87b8 66de ebb8 8d9c 9737
00000040: f8a4 5939 7ddd c7b7 f97d 7e38 22aa b639
00000050: aecc 9a37 d40d 73b9 28b1 15b9 a1a3 6bb9
00000060: 7623 9438 8a99 74b8 b47c 44b9 c74e 0838
00000070: 39bf 88b8 48f8 c639 c7b9 4d3a 634a d0b8
00000080: fb8d 4eb8 7ed6 7bb8 7c47 b5b7 f087 ffb7
00000090: d8e2 61b9 da98 31b7 7e0e 5138 fc9e adb7
000000a0: f495 e138 5951 ae37 7108 e436 440b 3038
000000b0: df3f 2eb9 8907 0838 2d09 2ab8 929e 8938
000000c0: 7e63 3b37 07bd 81b7 4731 01b7 99ff e9b8
000000d0: d3a2 0039 8d93 d7b9 3ada 8639 9126 9838
000000e0: a82d 58b8 9a69 ddb8 d56a 79b8 c0de 41b9
000000f0: 1880 b5b9 69a9 bcb7 20ff 35b7 7fc9 5138
00000100: 44bf 17b6 9e04 acb7 9529 4338 e493 2eb9
00000110: c651 f638 f587 8eb8 2b17 0bb8 07b9 1739
00000120: 16c0 8db9 54c2 89b8 7f4b 04b8 6c84 34b9
00000130: a2a8 cfb8 7c2a 1eb9 12bb dcb9 3887 95b8
00000140: 8bb0 bab8 daf1 bdb7 c095 38b7 81ad d838
00000150: 8c18 8238 f686 5539 8f69 cc39 1165 7c39
00000160: a178 c838 520b 35b9 ffd7 cbb7 f89f 8137
00000170: 9181 2d38 ed03 b138 9a4d 80b7 2e0e 49b8
00000180: 3a0b 3938 6cfb 9e39 fc97 d138 542e 5337
00000190: 1401 3438 0d44 a2b8 eecd 12b9 cc79 11b8
000001a0: 76ec 79b7 5862 d0b8 f53b 9538 685b 11b7
000001b0: 3ada 8537 d287 e7b8 f9b2 f1b9 481e 1d39
000001c0: daa4 b138 0e44 6338 5a3c 77b8 ed13 3439
000001d0: 3c91 ae37 6ae0 1bb9 90b1 ed37 53a3 d538
000001e0: 5410 473a 682a 9838 eb0e 06b8 44c4 62b8
000001f0: d579 ba36 320c ff38 50cc bab7 e07c 63b7
00000200: 3d49 36b9 fce7 18b8 6223 2338 193f 31b6
00000210: 7a5b beb9 d501 94b9 1631 1939 1483 c037
00000220: 6f65 5c36 f83b f838 bb80 05b8 bc60 abb8
00000230: a94c 8c37 3cc6 f038 1699 6f38 8330 acb8
00000240: 3989 0739 f850 bbb8 ee1f dcb9 93bb 9838
00000250: eeba ccb6 ced2 8f39 ec47 b038 f5fe 59b9
00000260: d61c 3837 d195 6239 43c0 2337 80b4 0a38
00000270: 4e39 dab7 62d8 4838 3919 9038 b131 0fb8
00000280: b2fe 90b7 0c92 dd38 404c 2eb8 e497 f9b7
00000290: 6f34 f738 71d3 63b8 8d51 4138 d6a1 31b7
000002a0: db82 ffb9 59f6 03b9 9b66 0db8 909d 8fb5
000002b0: 1f6e 5139 a2ac beb8 7937 b837 93e2 8cb7
000002c0: a29f c1b7 143d 62b6 a742 4139 1acd 7638
000002d0: 3229 0239 385a 2339 e1a7 c438 ef98 9cb7
000002e0: e148 c5b7 ff4c 1839 22e7 ff38 7f59 b939
000002f0: f9a1 8237 1618 1eb9 8e4b aeb9 d251 dbb7
00000300: a08c 6638 5fe8 b937 3b44 04b9 cdae 0039
00000310: 1a2e d9b7 1acf 66b8 85bb 0a39 a807 88b8
00000320: 4258 5137 3268 42b6 f470 8b38 b5b8 a338
00000330: b4d6 3c37 a086 de35 9c98 87b9 287d bd37
00000340: b01c 4337 02c8 dcb7 49f1 e3b7 7490 9639
00000350: 336c c337 cb1d 0139 045b c537 a8ff 1db9
00000360: 4c94 bb37 aa22 07b9 57e9 c7b7 58f7 bd37
00000370: 64f2 c638 1294 8b37 be1e 12b9 1e74 bb37
00000380: 7a15 b8b8 5999 31b8 39ee 8638 ffa4 b5b8
00000390: c255 6338 44a8 4038 f6c8 ca39 6b9e 9a38
000003a0: 03ad eb36 3db2 69b9 3e3f b839 602c 5fb8
000003b0: 5e97 b038 a4e3 db38 bcd4 36b8 0a1a e5b7
000003c0: 4af4 3fb9 1827 50b9 daa9 dbb7 b87e f9b6
000003d0: 0e90 70b8 880d 3739 6e8d 58b8 efad 2137
000003e0: ae19 d4b5 f966 6039 a050 c2b7 fcb0 44b8
000003f0: d3fb 7b38 4f8a 9538 9a95 3eb8 027d 1539
4.5333683e-05 -2.6625066e-06 4.8645916e-06 -0.00012065197 -0.000102452876 1.7026721e-05 8.272399e-05 -0.000104792496
-1.7387298e-05 -3.7421014e-05 -0.00019318864 9.956727e-05 -0.00010861832 -6.4806256e-05 -0.00011247098 1.8073502e-05
0.00020756188 -2.3825787e-05 6.067564e-05 0.00034840504 1.8453542e-05 -0.00023179437 -0.00014275743 -0.00022472303
7.063795e-05 -5.8317128e-05 -0.00018738472 3.2498294e-05 -6.520603e-05 0.00037950487 0.00078478124 -9.9320685e-05
-4.9246457e-05 -6.0042825e-05 -2.1610169e-05 -3.046167e-05 -0.00021542178 -1.0585611e-05 4.984298e-05 -2.069724e-05
0.00010756767 2.0780297e-05 6.795912e-06 4.1972162e-05 -0.00016617727 3.2431944e-05 -4.0539704e-05 6.562205e-05
1.1169233e-05 -1.5466021e-05 -7.700472e-06 -0.000111579146 0.00012267688 -0.0004111793 0.00025721063 7.255108e-05
-5.1540934e-05 -0.00010557771 -5.946572e-05 -0.00018488895 -0.00034618448 -2.2490234e-05 -1.0847842e-05 5.001714e-05
-2.2612085e-06 -2.0506148e-05 4.653035e-05 -0.00016649027 0.000117454256 -6.7964116e-05 -3.316176e-05 0.0001446941
-0.0002703673 -6.5688655e-05 -3.1541564e-05 -0.00017215469 -9.9019395e-05 -0.00015083881 -0.00042101048 -7.13006e-05
-8.902055e-05 -2.2643177e-05 -1.1002121e-05 0.00010332 6.203455e-05 0.0002036354 0.0003898856 0.00024070243
9.559212e-05 -0.00017265722 -2.4300067e-05 1.545249e-05 4.1367082e-05 8.440749e-05 -1.5294925e-05 -4.793534e-05
4.4117893e-05 0.00030323432 9.994206e-05 1.2587367e-05 4.291635e-05 -7.7374374e-05 -0.0001400036 -3.4684126e-05
-1.4896612e-05 -9.936531e-05 7.1160415e-05 -8.663956e-06 1.5956455e-05 -0.00011040237 -0.00046100447 0.00014983967
8.470724e-05 5.41844e-05 -5.8945596e-05 0.0001717356 2.0810046e-05 -0.00014865553 2.8335286e-05 0.00010187053
0.00075936806 7.2558236e-05 -3.1961983e-05 -5.4065385e-05 5.557415e-06 0.00012161619 -2.2268068e-05 -1.3559329e-05
-0.00017384156 -3.6455676e-05 3.889518e-05 -2.6411783e-06 -0.0003630778 -0.00028230125 0.00014609503 2.2949222e-05
3.2841597e-06 0.000118367316 -3.182956e-05 -8.1719336e-05 1.6724998e-05 0.00011481016 5.7124613e-05 -8.210635e-05
0.00012925723 -8.9319365e-05 -0.0004198546 7.282863e-05 -6.1014352e-06 0.00027432147 8.4057305e-05 -0.00020789712
1.09739685e-05 0.0002160885 9.7603215e-06 3.3069868e-05 -2.601431e-05 4.7885238e-05 6.871153e-05 -3.4140136e-05
-1.728474e-05 0.000105653045 -4.1555846e-05 -2.9753843e-05 0.00011787644 -5.4317938e-05 4.6090736e-05 -1.05877025e-05
-0.00048734885 -0.00012584905 -3.371258e-05 -1.0700187e-06 0.00019972817 -9.0920614e-05 2.196034e-05 -1.6794807e-05
-2.3081728e-05 -3.3712176e-06 0.00018430744 5.8841986e-05 0.00012413113 0.000155785 9.377278e-05 -1.8667864e-05
-2.3518167e-05 0.00014524533 0.000122023994 0.0003535263 1.5572632e-05 -0.00015077027 -0.0003324416 -2.6144935e-05
5.496724e-05 2.2161925e-05 -0.00012613919 0.0001227215 -2.5889884e-05 -5.502915e-05 0.00013230562 -6.4864114e-05
1.247792e-05 -2.8968902e-06 6.649076e-05 7.80685e-05 1.1255663e-05 1.657947e-06 -0.0002586291 2.2588836e-05
1.1629585e-05 -2.631918e-05 -2.7172866e-05 0.00028717855 2.3296196e-05 0.00012313497 2.3526612e-05 -0.00015067926
2.2361193e-05 -0.00012887517 -2.3831306e-05 2.2645734e-05 9.4865245e-05 1.6639042e-05 -0.00013935097 2.2346208e-05
-8.777804e-05 -4.2342905e-05 6.43399e-05 -8.6614855e-05 5.4200886e-05 4.5933077e-05 0.0003867817 7.3728e-05
7.023687e-06 -0.0002228701 0.00035142334 -5.320867e-05 8.420528e-05 0.00010485135 -4.3590306e-05 -2.7311053e-05
-0.00018306184 -0.0001985099 -2.6185928e-05 -7.4355303e-06 -5.735462e-05 0.00017457281 -5.163013e-05 9.636845e-06
-1.5802705e-06 0.00021400665 -2.3164146e-05 -4.689487e-05 6.0077593e-05 7.130636e-05 -4.5438857e-05 0.00014256316

bn1.weight f4 [512]
00000000: a274 773f b0ce 813f 3b02 663f 24d9 823f
00000010: a76c 713f 51e2 7e3f 9deb 823f e583 803f
00000020: 3fe9 753f f075 7b3f 01f2 8c3f 7b74 803f
00000030: a6a6 733f 3544 843f cf29 693f f2ff 683f
00000040: 18a5 7e3f 3e7a 733f 1985 8e3f 5d96 873f
00000050: d826 823f 448d 823f 25e2 7e3f e31d 883f
00000060: c5e9 853f c6fb 883f c66f 7d3f 619d 873f
00000070: 7ab8 733f 25c5 813f 2e74 773f e4be 763f
00000080: c127 833f 3df2 663f d16d 853f 6fc4 883f
00000090: 095b 7e3f 7949 7b3f 5a0a 823f 215f 7c3f
000000a0: 5a4f 8c3f 7272 793f ecfc 833f ee13 7e3f
000000b0: ba6b 8c3f 2fd8 763f 442a 873f 9b31 6b3f
000000c0: 7b21 773f 2c04 803f df11 853f fa5d 8c3f
000000d0: 51b2 6c3f b9f6 773f 29de 7b3f cf49 7d3f
000000e0: c2e2 6a3f 2c93 5d3f 6024 7b3f 0b11 913f
000000f0: 94d7 933f 5d60 803f c47c 753f 00cb 7d3f
00000100: 70c4 793f 29bf 823f 5b05 833f 40a8 813f
00000110: 6740 7c3f 5da3 7b3f e89b 773f a252 893f
00000120: 0d92 873f 0362 6b3f b5ae 6c3f 735e 7b3f
00000130: 29f2 6e3f e7fc 783f 989f 803f 6863 823f
00000140: fc73 7b3f 5308 6f3f 59bf 703f bf72 863f
00000150: 0f39 803f 98d6 843f 37dd 7e3f dcb3 7e3f
00000160: 01ae 813f 1196 753f fa77 803f e042 7b3f
00000170: 8c04 7d3f 8b6f 833f 0605 6e3f cbdd 863f
00000180: ca13 823f 4ad1 843f b0c8 783f b49d 843f
00000190: 740c 883f 2632 8a3f d352 843f a74b 743f
000001a0: 52ef 783f 899c 853f 9e7a 7c3f 0967 753f
000001b0: 6514 7e3f ac02 8b3f 0e15 7b3f 4ea6 723f
000001c0: 0de6 743f a805 803f 1369 843f 39b6 883f
000001d0: 1066 7b3f f699 783f 7d2b 783f 0b21 753f
000001e0: 3835 883f 914e 7c3f f355 7a3f ba6f 763f
000001f0: d9a0 843f be53 843f 26e3 7e3f e860 813f
00000200: 022a 6c3f 93f6 803f 6fc9 823f 96d0 843f
00000210: 0a3b 6c3f 3793 7c3f 4951 7e3f d221 863f
00000220: 2dc5 783f 9b1c 803f 27e1 803f a879 863f
00000230: 5d95 743f e470 853f b7c7 813f 4049 7f3f
00000240: de95 803f 85c2 853f 460d 883f 57ae 7b3f
00000250: a0f0 783f 7f28 703f ec0a 833f 4cc7 893f
00000260: 6796 733f d158 813f 9d2a 703f 6fbf 723f
00000270: 13a6 7e3f 8147 6b3f b862 843f 5553 813f
00000280: 2b03 7b3f 6884 833f 951d 813f b532 853f
00000290: ee8c 8a3f c47a 823f 6f13 803f 26e1 863f
000002a0: 1bbc 703f f0da 833f 8df3 793f 5f84 813f
000002b0: 1e64 6e3f c106 853f 26ca 893f ffc5 753f
000002c0: f4f3 723f 53d8 863f 88ed 753f 33e0 823f
000002d0: ddf2 7b3f 83de 733f e0e4 7a3f f159 7f3f
000002e0: 5a54 843f fa6a 6f3f fd54 7d3f e039 7e3f
000002f0: 4149 7e3f a1a6 7b3f 4984 723f a684 773f
00000300: 6399 7a3f 8801 7b3f b35b 803f abb9 893f
00000310: ba29 893f e8e1 713f 0f54 853f 0aca 853f
00000320: 8e95 743f 8d62 863f 09af 753f 9f75 873f
00000330: a1a8 703f d99a 7f3f b966 813f 1784 853f
00000340: edb3 883f 939c 7f3f fac0 703f 2b05 7d3f
00000350: 1c25 7a3f e0f2 873f 03a4 6b3f a2f7 863f
00000360: ec9e 693f db6a 723f 22ab 723f 58fd 633f
00000370: f9ec 7f3f 42cf 833f df26 873f 620c 823f
00000380: 93dc 673f 1819 7d3f d579 7f3f f0a2 8a3f
00000390: 5537 7a3f c288 853f 54ae 7b3f cbc6 883f
000003a0: ada1 873f e917 843f 237a 7c3f 6ccd 643f
000003b0: 0dae 8a3f 862e 853f a10d 723f 2c6e 7c3f
000003c0: b6a6 7f3f 2246 863f e39b 7b3f f7cc 773f
000003d0: 648d 793f 6bc6 813f 38dd 753f 2ff2 833f
000003e0: adae 7d3f 98d5 843f ef24 803f 57c3 863f
000003f0: 0605 813f eac0 7c3f 56fa 803f aa80 793f
0.9666234 1.0141201 0.89847153 1.0222516 0.94306415 0.9956408 1.0228153 1.0040251
0.9605903 0.98226833 1.1011354 1.0035547 0.9517616 1.0333315 0.9107942 0.9101554
0.99470663 0.951084 1.1134368 1.0592762 1.0168104 1.0199361 0.9956382 1.0634121
1.0461966 1.0701835 0.9899868 1.0594903 0.95203364 1.0138289 0.9666165 0.96385026
1.0246507 0.90213376 1.0424138 1.0684947 0.9935766 0.98158985 1.0159409 0.98582655
1.0961716 0.97440255 1.0311561 0.9924916 1.0970376 0.9642362 1.0559773 0.91872567
0.9653546 1.0001273 1.0396079 1.0966179 0.9245959 0.96860844 0.98385864 0.9894075
0.91752255 0.8655269 0.9810238 1.1333326 1.1550164 1.0029408 0.958935 0.9913788
0.97565365 1.0214587 1.0236009 1.0129471 0.9853577 0.9829615 0.9672227 1.0728343
1.0591446 0.9194643 0.9245408 0.98190993 0.9333826 0.972609 1.0048704 1.0186586
0.98223853 0.93372077 0.94041973 1.0503768 1.0017413 1.0377989 0.995563 0.99493194
1.0131227 0.9593211 1.0036614 0.9814892 0.98835063 1.0268415 0.92976415 1.0536436
1.0162289 1.037637 0.97181225 1.0360627 1.06288 1.0796554 1.0337776 0.95427936
0.97240174 1.0438396 0.986246 0.95860344 0.9924987 1.086019 0.98079 0.9478501
0.9566353 1.0001726 1.0344566 1.068061 0.9820261 0.97109926 0.9694136 0.95753545
1.0641241 0.9855738 0.977874 0.9626423 1.0361587 1.0338056 0.9956535 1.0107698
0.922516 1.0075248 1.0217723 1.0376155 0.92277586 0.9866213 0.9934278 1.0479071
0.97175866 1.000873 1.0068711 1.0505877 0.9554041 1.0425076 1.0139073 0.99721146
1.0045736 1.0449988 1.0629051 0.98312896 0.97242165 0.9381179 1.0237708 1.0763946
0.9515137 1.010523 0.9381502 0.94823354 0.9947216 0.9190598 1.0342627 1.0103556
0.9805171 1.0274782 1.0087153 1.04061 1.0824258 1.0193715 1.0005931 1.053746
0.94037026 1.030119 0.97637254 1.0118521 0.93121517 1.0392686 1.0764816 0.96005243
0.9490349 1.0534767 0.9606557 1.022467 0.98417455 0.952614 0.98005486 0.99746615
1.0338242 0.9352261 0.98957807 0.9930706 0.99330527 0.9830113 0.947331 0.9668678
0.978903 0.9804921 1.0027984 1.0759786 1.0715859 0.9448533 1.0416278 1.0452282
0.955407 1.0498825 0.9597021 1.058277 0.9400731 0.99845654 1.0109473 1.0430936
1.0679909 0.9984829 0.9404446 0.9883601 0.97712874 1.0620995 0.9204714 1.0544322
0.9125812 0.946943 0.9479238 0.89058447 0.99970967 1.0297625 1.0558738 1.0160029
0.90570945 0.98866415 0.99795276 1.0830975 0.9774068 1.043236 0.9831288 1.0685667
1.0596215 1.0319797 0.98623866 0.8937595 1.0834366 1.0404823 0.94552046 0.9860561
0.99863756 1.0490153 0.9828474 0.96797127 0.9748137 1.0138677 0.9604068 1.0308284
0.9909466 1.0377684 1.0011271 1.0528363 1.0079658 0.98731863 1.0076396 0.9746195

bn1.bias f4 [512]
00000000: ff1a 103b cc63 b5bc a8fb 59bd 0a16 2e3d
00000010: d22f 9ebd b1b9 4e3c eb28 faba 421c b5bc
00000020: 35b6 89bb 3f09 313d 2586 e53c c72b ccbb
00000030: 3d91 053c 7e34 e33c 6284 88bd f560 76bc
00000040: 8c6d 9db9 6233 82bd c4c5 753c 73c4 203d
00000050: 5354 43bc b24f 373d 3fbe 61bc 901b 543d
00000060: 18ef 3c3d 37c1 633d 59bf 00bd ccd2 133d
00000070: 1f10 9cbd ac01 373d 0877 c3bd 2661 e6bc
00000080: 368a 453d 43e5 c7bd 238c 153d 9193 a93d
00000090: ee9c e83a 2d25 5cbd 20bd a6bc 8421 a43c
000000a0: 034f 9d3d 58cf 99bd 9b58 523d fa13 373c
000000b0: 1492 933c 2251 bdbd 6ca9 c33d 0801 46bd
000000c0: a9e6 debd 70dc e3bb 8b53 fd3c 0402 fd3d
000000d0: 94ca bdbc 6c98 99bd 1037 303d 6a6e cfbc
000000e0: 8895 36bd 1342 adbd 3c13 1bbd 04ed 503d
000000f0: 6173 db3d 5ef8 05bd 066f 32ba 26f6 13bc
00000100: 855e 883c 8313 dbbc 6e97 dfbc 7803 68bc
00000110: 1f30 6abd 5e06 69bd 9471 b3bb 2bf9 aa3c
00000120: a609 933d bed4 7abd 2f17 48bd 984c 32bc
00000130: 164f 87bd a8bd 3bbb 8740 d4bc ab01 443d
00000140: 7b83 b33c 91bb 87bd 7439 e0bc d928 f23c
00000150: 8a84 513c 9124 f3bc 008d 5ebd a8ad 583c
00000160: bfd1 15bd 82d9 7cbc 447a 803c d5c4 7cbc
00000170: bdfb fa3c d928 8f3d 57c9 87bc d4fd 823c
00000180: f340 52bc 786b 9e3c c4b4 2dbd 4e44 d63b
00000190: bb03 0a3c 2639 993d b65f b83c 2b8c c83b
000001a0: 3bfd 383d e489 cf3d bd4b 8abc 64de 1bbd
000001b0: c87e 80bc 3f39 e23d 3f11 67bc 3378 02bd
000001c0: 4740 60bd c86a 753d 8daa 4d3d b85c 3e3d
000001d0: 1c41 c1bd 5b0e 443a e896 8ebc e505 a6bb
000001e0: f16b 5d3c b570 f6bc 38f6 2cbd 1419 31bd
000001f0: 8603 6c3d 2aef 373d e976 9bbb 16e8 ecbb
00000200: 68f1 dcbd 9e79 03bd ea2c b0bc 4360 1c3d
00000210: 5426 81bd 2200 b0bc 348f b5bc ba7e 303c
00000220: e2a3 0dbd 9621 33bc 7936 953c 745e 5abd
00000230: 2d75 d0bc fe91 e53c 9370 f93b c006 4c3d
00000240: 366e 943c 9d5e 443d 9f1b 223d d9f2 94bc
00000250: 34b4 db3c c172 86bd a132 8fbc 840d a83d
00000260: 49dd 67bd 80a9 083b e69d bebd 6f82 70bd
00000270: 0f63 84bc 79e9 b3bd 4d0f 593c 2e18 f2bb
00000280: 2d5e debc 7e9f ef3c 769f 8dbb d020 b9bc
00000290: d490 29bd 551e 6f3d c07d 7ebc 596e e93d
000002a0: eb1d 4abd 56e5 203c 29d6 cb3c 467f 883c
000002b0: 374f 77bd a13e 113d 26b5 8b3d 1167 73bd
000002c0: 825f 6fbd f70d 223d aec1 20bc 46c5 d6bc
000002d0: 6ef0 eabc e280 07bc 7116 153c 9a6d 42bd
000002e0: ff8a 6d3d 937b 90bd 7fcf 6dbd 91dd 8dbc
000002f0: 866c 03bc d36b 57bd 2e60 a5bc b445 f8bc
00000300: 8797 5b3d 614a 71bc f35d 653c f0f5 5e3d
00000310: 2853 963d 1f5b a3bd 23ba 743d 3bd6 093c
00000320: 113e b9bd 716a 623d b690 8abc c41a ad3c
00000330: bc11 11bd 84c8 1fbd fc83 a43c 1bac 5f3d
00000340: 7eb0 8abb c788 cabb 1d33 ccbd dbe3 2bbc
00000350: bbb0 9fbc 6b09 223b 7c2c 99bd 113e 2a3d
00000360: 0f2b fabd 93db 1abd 2e10 93bc 0b0b 68bd
00000370: f328 31bc 7a2c b93b 8583 933d f580 363d
00000380: 9a76 cabd 620e 103d bd13 bbbb 33fe 58bc
00000390: 0552 c0bd 8f57 f9bc 1ab8 51bc 4ae9 e03c
000003a0: c961 3f3c e003 45bd 3412 6d3c 737f febd
000003b0: c138 0f3b 7bfd 2d3d 3eb8 4ebd 2c72 f6ba
000003c0: 2659 71bd 8bef 43bd 86aa 39bc 8b31 d13c
000003d0: 2378 9bbc 81da e43c 1e48 9c39 a437 3fbb
000003e0: 841f 6f3d e49f e4bb 1862 083c da12 903d
000003f0: 3f02 84bc 3b21 e7bc a838 9dbc ef16 90bc
0.0021988747 -0.022142313 -0.053218514 0.042501487 -0.07723965 0.0126175145 -0.0019085681 -0.022108201
-0.004202629 0.04322171 0.028018067 -0.0062308046 0.008152303 0.027734991 -0.06665875 -0.015037765
-0.00030026992 -0.06357457 0.015000764 0.03924985 -0.01192196 0.044753738 -0.013778268 0.0517841
0.046126455 0.055604186 -0.031432483 0.036089703 -0.07620262 0.04467933 -0.09544188 -0.028122496
0.04822751 -0.09760525 0.036510598 0.08280099 0.0017746964 -0.05374639 -0.020353854 0.020035513
0.07681086 -0.07510251 0.051354032 0.011174196 0.018013991 -0.092439905 0.09553799 -0.048340827
-0.10883839 -0.0069537684 0.030923625 0.123539 -0.023167886 -0.07499775 0.04302126 -0.025321204
-0.044576198 -0.08459868 -0.03786014 0.051007286 0.10715366 -0.032707565 -0.0006806705 -0.009030854
0.016646633 -0.026742702 -0.027293887 -0.014160983 -0.057174798 -0.056890838 -0.005476186 0.020870766
0.07179575 -0.061238043 -0.048850235 -0.010882519 -0.06606881 -0.002864698 -0.025909675 0.047853153
0.02191328 -0.06627572 -0.027371146 0.029560493 0.012787947 -0.029680522 -0.054333687 0.013224997
-0.036576983 -0.015432717 0.0156833 -0.015427788 0.030637616 0.06990213 -0.016575499 0.015990175
-0.012832868 0.019338354 -0.04240872 0.0065389043 0.008423741 0.07481603 0.022506576 0.006120225
0.045163374 0.101337224 -0.016881818 -0.038053885 -0.015685454 0.11046075 -0.014103233 -0.031852912
-0.0547488 0.059916288 0.050211478 0.046475142 -0.09436247 0.0007478946 -0.017405942 -0.0050666207
0.013514505 -0.03008304 -0.042227 -0.043236807 0.057620548 0.04490582 -0.0047444 -0.0072298152
-0.10788232 -0.032098405 -0.021505792 0.03817774 -0.06306139 -0.021484438 -0.022163011 0.0107724015
-0.03458012 -0.0109333005 0.018214451 -0.053312734 -0.025446499 0.028023716 0.007612297 0.049811125
0.018118959 0.047941793 0.039577123 -0.018182205 0.026819326 -0.06564856 -0.017480196 0.08205703
-0.05660752 0.0020852983 -0.093074605 -0.05871814 -0.016160516 -0.08784766 0.013248277 -0.0073881363
-0.027144516 0.029250856 -0.0043219877 -0.022598654 -0.041397884 0.058378536 -0.015532911 0.11398
-0.04934494 0.009820303 0.024882393 0.016662251 -0.06037828 0.03546012 0.06821661 -0.059424464
-0.058440693 0.0395641 -0.009811802 -0.026217114 -0.028679099 -0.008270474 0.009099589 -0.047467805
0.057993885 -0.0705482 -0.05805921 -0.017317565 -0.0080214795 -0.052593064 -0.020187464 -0.030306675
0.053611305 -0.014727206 0.01399945 0.054433763 0.073400795 -0.07976364 0.059747826 0.008412893
-0.09045041 0.05527729 -0.016914707 0.021130927 -0.035417303 -0.039009586 0.020082466 0.054607492
-0.0042324653 -0.006180856 -0.099706866 -0.010491337 -0.019493451 0.0024724852 -0.07479188 0.041563097
-0.12215244 -0.03780706 -0.017952051 -0.056651156 -0.010812986 0.005651054 0.0720282 0.044556577
-0.09885903 0.035169967 -0.00570914 -0.0132442 -0.09390644 -0.030437259 -0.012800241 0.02745499
0.011681029 -0.0480994 0.014469672 -0.12426653 0.0021853896 0.042478066 -0.050468676 -0.0018802336
-0.05892291 -0.047835868 -0.01133216 0.02553632 -0.018978184 0.027936222 0.0002980837 -0.0029177452
0.058379665 -0.0069770683 0.008324169 0.07034846 -0.016114352 -0.028214088 -0.019192055 -0.01758906

bn1.running_mean f4 [512]
00000000: b405 4c41 f4bd 9e40 67b8 eac0 eeae 8641
00000010: fae2 21c1 8eae 15c2 60f4 2a41 7fc9 a241
00000020: 1dcd c640 4a01 1ec0 ebcc d240 4b73 88c1
00000030: 6299 e341 cd32 afc0 2fc0 8ac1 3f84 a53e
00000040: 8a79 9641 d23f 58c1 3c4a 8bc1 7eb7 f5c1
00000050: 09f2 df41 9d1f b4c1 0635 a441 9148 7ac1
00000060: 39ec 6241 b6f3 8541 4fb4 0742 93ae b341
00000070: 7a99 de41 a474 c241 62d9 13c2 f4c2 8840
00000080: 52a7 f740 7eb3 bcc1 49c7 5dc1 7dce 1242
00000090: dbdf 1041 1900 a4c1 96e9 6ac0 bcec b5bf
000000a0: 14c9 0342 e6f5 3841 6cee 2941 80a3 6740
000000b0: 316b 2741 ab54 6e41 82bc 34bd 4f44 0441
000000c0: 0d71 5841 0607 8e40 495c a6bf aa19 7941
000000d0: 390a e2c1 833a 6141 33e8 ab41 2b46 3cc1
000000e0: ed76 04c0 596d c841 17c6 2cbf 9317 c841
000000f0: 06c5 ae41 8bc4 b5bf 9c4d 9bc1 fefe 7140
00000100: 1a41 65c1 687f 32bf c513 e7c1 a833 1942
00000110: 6382 a5c1 66a8 b941 f00f 22c1 4e69 6a40
00000120: d386 2dc2 2047 9341 5e7a abc0 c354 9f41
00000130: c8dd 3b41 4b09 9d3f e700 c441 3357 9341
00000140: 3d16 9641 1d9b 3ec1 2210 3541 3185 1241
00000150: 1a6e 2741 f337 2dc0 1a91 ddc1 7489 fb41
00000160: 1132 16c1 8457 05c1 cf8e d941 3a7a ebc1
00000170: 5461 8440 14bc 03c0 dbb6 cdc1 0045 d440
00000180: be4e 7141 b0d6 e641 dd33 0342 00e6 d840
00000190: 9937 ecbe d787 2441 437f b841 a0c5 d540
000001a0: e81d 1dbf 3861 1b42 5de4 3c41 b1c3 0841
000001b0: 7e94 ce40 05fd 49c1 3705 b2c1 5a4c e841
000001c0: 7ef3 3cc1 3abf 20c1 7f41 ccc1 90d5 2740
000001d0: f1c4 dec1 99c1 c3c1 31fd 4f40 d0d5 bd41
000001e0: d7f5 c241 784b 8841 8e5a dec0 2adb 84c0
000001f0: bf43 f23f e9bb fc41 6bba 23c1 b6f2 4241
00000200: 072d 22c2 3c64 1241 e29f 5141 73c3 86c0
00000210: 6c97 7841 6f88 9cc1 62e5 e441 6c81 8f41
00000220: a919 7c40 bf9d c9c0 bdd8 1ec0 1da3 8641
00000230: 0ea3 b041 7d58 3041 d0be 8bc1 71bc f2bf
00000240: a364 5641 dffa 0342 58b0 d741 1c2d bc41
00000250: 0aaa 68c1 46f6 b341 5027 84c1 a556 bcc1
00000260: 3844 26c1 9609 8d41 4aaa 0fc1 027a f4c1
00000270: 489b 49c1 4878 9ebf 41dd 84c1 ba4c 53c1
00000280: 3f67 5841 e54f 82c1 d71a ea3e 9d2b 0bc1
00000290: 0890 7ec1 27aa 04c1 6bc5 5d41 dfef a43f
000002a0: 4194 b741 d200 a241 d988 1440 713a 983f
000002b0: cfdc f3c1 fe71 9341 e1be 3841 fa61 0641
000002c0: 0804 7cc0 8dd2 4041 0d33 6ec1 e6b2 1941
000002d0: 3f41 83c1 45b0 cec1 f300 9240 706a 89c1
000002e0: 57e7 a73f cd63 d741 1878 8b41 92a1 fe41
000002f0: 7fef 0dbf d9f9 96c0 753c d9c1 889c eebe
00000300: 5aaa 8441 e85f 0141 fcd9 fbc0 1c36 a041
00000310: ef7d 5b40 4bcb c8c0 9e9d b441 3233 8741
00000320: 47a3 14c1 2312 4841 5a1e c141 c997 b240
00000330: 0dff 53c1 875b 6640 5a14 4142 67de f340
00000340: 8a68 aa41 6a21 2ec0 4528 b5c0 7ab8 afc1
00000350: 9d45 823f 1e5c 3ac0 aaab e0bf eef6 afc0
00000360: 74fc 19c0 f89e b2c1 029c 0dc1 945f d541
00000370: a20d 8cc1 1108 f741 f78c 57c1 8ed0 f340
00000380: 1af2 5741 020b 9d41 7d45 2ec1 87ca a3c0
00000390: 9c47 1fc1 ed02 18c2 0702 afc1 23be 8fc0
000003a0: 8775 6ac0 6c64 0542 9c91 0e42 c519 f0c1
000003b0: 95a2 8b41 ed1b 9340 f516 4e3f 8a64 e040
000003c0: 9649 1fc1 816b 6b41 eb01 08c1 f078 9cc1
000003d0: c5a8 4dc1 c1cd fe41 84af d1c1 ade4 f541
000003e0: 4f1d 56c1 dad9 21c1 4a91 a641 a75b 3441
000003f0: 668e a9bf a72f c141 2539 df41 5087 3441
12.751392 4.9606876 -7.33501 16.835415 -10.117914 -37.420464 10.684662 20.348387
6.2125382 -2.4688287 6.5875144 -17.056295 28.449894 -5.4749513 -17.34384 0.32327458
18.809345 -13.515581 -17.411247 -30.714596 27.993181 -22.515436 20.52589 -15.642716
14.182672 16.744 33.926083 22.460241 27.82494 24.306953 -36.962288 4.273798
7.739175 -23.587643 -13.861154 36.70165 9.054652 -20.500048 -3.670507 -1.4212871
32.946365 11.560034 10.620708 3.6193542 10.46367 14.895671 -0.044125088 8.266677
13.5276 4.4383574 -1.2996913 15.568766 -28.254992 14.076785 21.488379 -11.767131
-2.0697587 25.053392 -0.6748976 25.01151 21.846203 -1.4200605 -19.412895 3.7811885
-14.328394 -0.69725657 -28.884653 38.300446 -20.688665 23.207226 -10.128891 3.6626773
-43.381664 18.409729 -5.3586874 19.916388 11.741646 1.2268461 24.50044 18.417578
18.760859 -11.912869 11.316439 9.157517 10.46438 -2.7065399 -27.69585 31.442116
-9.387223 -8.333866 27.19473 -29.43468 4.136881 -2.0583544 -25.714285 6.633423
15.081724 28.854828 32.800648 6.778076 -0.46136168 10.283164 23.06214 6.680374
-0.6137376 38.84494 11.805753 8.547776 6.4556265 -12.624272 -22.252546 29.037281
-11.809446 -10.046686 -25.53198 2.6224098 -27.846163 -24.46953 3.2498286 23.7294
24.370039 17.03685 -6.948554 -4.1517534 1.8926924 31.591753 -10.233012 12.184256
-40.543972 9.149471 13.101534 -4.2113585 15.536968 -19.566618 28.612003 17.938194
3.9390662 -6.300506 -2.4819787 16.829645 22.079617 11.021604 -17.46817 -1.8963758
13.3995695 32.99499 26.961105 23.522026 -14.541513 22.49525 -16.519196 -23.542307
-10.391655 17.62968 -8.9790745 -30.559574 -12.60041 -1.2380457 -16.608034 -13.206232
13.525207 -16.289011 0.45723602 -8.698148 -15.910164 -8.291541 13.860698 1.2885703
22.94739 20.2504 2.3208525 1.1892835 -30.482817 18.43066 11.546601 8.39892
-3.937746 12.051404 -14.887464 9.606176 -16.406858 -25.83607 4.562616 -17.176971
1.3117474 26.92373 17.43364 31.828892 -0.5544357 -4.717999 -27.15452 -0.466038
16.58318 8.085915 -7.8703594 20.02642 3.4295614 -6.274816 22.576962 16.899998
-9.289863 12.504428 24.13982 5.5810285 -13.249768 3.5993364 48.269875 7.6208987
21.301044 -2.7207894 -5.6611657 -21.965076 1.0177494 -2.9118724 -1.7552388 -5.498893
-2.4060335 -22.327621 -8.850588 26.671669 -17.506657 30.878939 -13.471915 7.6192083
13.496607 19.630375 -10.891965 -5.1184726 -9.954983 -38.002857 -21.87599 -4.49196
-3.6634233 33.34807 35.642197 -30.012583 17.454386 4.597159 0.8050378 7.012273
-9.955465 14.713746 -8.500468 -19.559052 -12.8537035 31.850466 -26.210701 30.736658
-13.382155 -10.115686 20.820942 11.272376 -1.3246582 24.148268 27.902903 11.283035

bn1.running_var f4 [512]
00000000: 26f5 b541 234f 1841 21ee 6441 d1a6 cd40
00000010: c0e8 eb40 d80e a841 d6a9 0141 97d0 9341
00000020: 8212 1841 5bef 3041 65c4 0a41 1385 8541
00000030: 8026 2341 ac12 d140 a70b 1541 96d0 2841
00000040: b754 7841 fd7a 2841 288e 0b41 30db 4141
00000050: 6c13 0a41 4361 7b41 9133 5141 d614 1541
00000060: 34d6 2241 475c 3241 4ab0 8041 a904 a741
00000070: acf5 6241 2b03 e040 6f24 2341 bbbf 0941
00000080: 9260 9041 6bcf 1c41 7676 0141 ff6b b441
00000090: 8264 d140 b7c4 7641 c606 1241 e332 c040
000000a0: 4f06 ae41 2eb0 0241 5ada 4241 4007 0241
000000b0: 7a6e 2641 060e 1f41 0242 fa40 87e1 fd40
000000c0: 69b0 1441 51a4 4a41 2c00 4641 b80e 9041
000000d0: 9535 b441 7226 1241 6068 9341 78d8 1d41
000000e0: 3d6e 2141 d398 1341 a4cb 2641 2bf4 5e41
000000f0: 77e5 2d41 2aa4 2541 987d 9541 afab 4e41
00000100: 9da2 6141 96c5 5941 043b 8a41 0654 3741
00000110: 0678 3841 721d 8b41 c0b6 1b41 e3f2 4041
00000120: d289 9e41 adca 3941 1868 4341 47ee 3d41
00000130: 1da1 0441 db50 8941 0a3b 0a41 5868 1241
00000140: 7f12 a541 d9e7 0741 8065 0741 a922 2041
00000150: 1533 0341 8a95 0e41 5288 9041 a34e 2d41
00000160: c764 7d41 695b 3241 2891 4a41 0c1b a041
00000170: 38b9 2241 bad1 4341 78a3 3d41 3c7f 8341
00000180: 7342 6941 83ec 2841 6245 2341 4dfe 2f41
00000190: 646b 0c41 8030 6241 f2e8 2641 e951 3141
000001a0: 46fd 1541 d635 0142 85fe 4741 1257 0141
000001b0: fa7a 3541 903b ca40 4cef 4041 e4e3 3841
000001c0: cfbf 1841 712d 6641 5562 8941 bcb8 f240
000001d0: 9d15 8141 5a35 7441 7cf4 3641 a2af 8241
000001e0: 6483 0541 cb20 6341 0553 1841 2552 3241
000001f0: fce0 0641 50e2 9041 2d4e 2741 fba4 0d41
00000200: e01a 3a41 6d97 3541 7abb 7d41 dc1a e540
00000210: e607 2341 d47d 3641 60fd dd41 091a 6441
00000220: cb87 0e41 4c6d 1041 0b40 0f41 711e 6e41
00000230: fc8b 2441 8913 e740 6383 ee40 347e 0341
00000240: ff5e 6a41 8cc0 a541 c039 1f41 1936 8741
00000250: aeb6 5741 98cf 0d41 f545 1441 92cc 2a41
00000260: 487e 4f41 9f76 2441 7d0e 4d41 8f9e c141
00000270: 14a6 9541 f414 f640 764e 9941 969b 1641
00000280: 1210 6241 45b2 f840 eb92 2a41 18fe 5441
00000290: abda 9441 a774 5e41 09d9 2841 ec2d 5941
000002a0: b731 e240 03ef 0541 9684 1241 5bc7 6041
000002b0: 94ec 6541 16d0 3b41 eba1 2141 d10c 2341
000002c0: ff35 4641 cbaa 4b41 ffd3 0241 ad14 cd40
000002d0: 1749 a041 b188 6541 6d7e 4941 cd6f 7341
000002e0: bb99 2841 0c79 6441 e72d 3041 df7e 4441
000002f0: 9af0 f740 f2b0 2941 d121 5041 fae4 2c41
00000300: b03f 6841 b7c2 2741 f65a 5341 809c 9b41
00000310: b9fa 0f41 3fa8 2c41 1c25 8c41 ad7b 5041
00000320: 7eae 1641 c137 8841 8c23 4f41 d574 3d41
00000330: 4371 ea40 d309 8441 b6a6 f941 837d 9341
00000340: e900 8c41 dadf f940 16c2 5141 04d0 4041
00000350: 255f 4541 6b42 2f41 caa7 1441 4a63 3141
00000360: 1cf1 4941 d8b9 4641 a668 8341 01bf 8941
00000370: d4c9 1e41 2677 0a41 f449 7841 f254 1d41
00000380: 6a93 0a41 a8eb 8741 42ce 6741 6318 1d41
00000390: 85a9 6141 990b d641 e078 5441 2ec1 2e41
000003a0: cf8f f640 2abd 0541 6015 0541 9303 8241
000003b0: 99ff 1f41 2064 0441 16b9 4241 05ee 8941
000003c0: 70ce 5341 0d20 6741 17c9 3741 532b 7241
000003d0: 15ef 0641 8e04 ae41 9bde b841 7fb1 8941
000003e0: c720 9841 5aca 1b41 6ed0 8041 7a87 1041
000003f0: 87be 2a41 35e6 5041 fb21 0f41 6307 7f41
22.744701 9.5193205 14.308137 6.4266133 7.372162 21.007248 8.103964 18.47685
9.5045185 11.058436 8.672948 16.689978 10.196899 6.5335293 9.315345 10.550924
15.520682 10.530026 8.722206 12.116013 8.629742 15.711246 13.075089 9.317587
10.177296 11.147529 16.086079 20.877275 14.1849785 7.0003867 10.196395 8.609309
18.047153 9.800639 8.091421 22.552732 6.543519 15.423026 9.126654 6.0062118
21.75308 8.168013 12.1783085 8.12677 10.401972 9.940924 7.8205576 7.93378
9.293069 12.665116 12.375042 18.007187 22.526163 9.134386 18.425964 9.865349
10.089414 9.224811 10.424717 13.934611 10.868522 10.352579 18.686325 12.916915
14.1022005 13.610739 17.278816 11.458014 11.529303 17.389378 9.732117 12.0592985
19.817295 11.611981 12.2129135 11.870673 8.289334 17.16448 8.639414 9.150475
20.634031 8.494103 8.46228 10.008462 8.199971 8.911509 18.066563 10.831698
15.837104 11.147317 12.660439 20.013206 10.170219 12.238703 11.852409 16.437126
14.578723 10.557742 10.204439 10.999585 8.776218 14.136841 10.431871 11.082498
9.374334 32.302574 12.499639 8.083757 11.342524 6.319771 12.058422 11.555637
9.546828 14.386094 17.173014 7.5850506 16.135553 15.263025 11.434689 16.335758
8.344578 14.195506 9.520268 11.145055 8.429928 18.110504 10.456586 8.852778
11.631561 11.349469 15.858271 7.1595287 10.189428 11.40572 27.748718 14.256356
8.908153 9.026684 8.9531355 14.882432 10.284176 7.2211347 7.4535384 8.218311
14.648192 20.719017 9.951599 16.901415 13.4821 8.863182 9.267079 10.674944
12.96833 10.27896 12.816037 24.202421 18.706093 7.6900578 19.163311 9.412985
14.128923 7.7717614 10.660869 13.312035 18.606771 13.90348 10.552987 13.573711
7.0685687 8.370852 9.15737 14.048671 14.370258 11.738302 10.102031 10.190629
12.388183 12.7291975 8.176757 6.408774 20.035688 14.345872 12.593366 15.214795
10.537532 14.279552 11.011207 12.280974 7.7481203 10.6057 13.008256 10.8059025
14.515549 10.485038 13.209707 19.451416 8.998712 10.791076 17.51812 13.030194
9.417601 17.027224 12.946178 11.841023 7.326326 16.504797 31.206402 18.436285
17.500444 7.8085756 13.109884 12.050785 12.335729 10.953715 9.290964 11.0867405
12.621365 12.420372 16.426098 17.218264 9.924274 8.654089 15.518055 9.833239
8.66099 16.990067 14.487856 9.818454 14.103887 26.755663 13.2795105 10.922163
7.7050548 8.358683 8.3177185 16.251745 9.999902 8.274445 12.170187 17.24122
13.2379 14.445325 11.486594 15.135577 8.43337 21.752224 23.108694 17.211668
19.016005 9.736902 16.101772 9.033075 10.671515 13.056203 8.945796 15.939303

fc2.weight f4 [256, 512]
00000000: ccb0 64bd f95b 14bc 342d 82bd 011a 20bb
00000010: 1f18 2bbd 4782 583c f39f bdbd 4185 ccbb
00000020: 075d 65bc e166 79bd 4576 c1bc 189b b8bd
00000030: 5c38 6ebd 7cce 013c 87cc fd3c b765 5fbd
00000040: 4939 2bbd 90e5 053c e9e6 873c 3dc1 813d
00000050: 811f 613c 80e5 b33d 993e 1a3d a90c 2c3d
00000060: fae6 2e3c a9a4 8f3c 68fe 0b3d 4542 e4bc
00000070: c7fa 883c 400c afbd 78f8 18bd 2f50 e83c
00000080: f060 af3c d5a9 4abd fc02 9f3d 3cd1 f3bc
00000090: 5c65 b5bc 53cc fabc f672 bcbd 16f1 23bd
000000a0: af1b bb3d d322 ddbb b0cb 263d 2e85 95bd
000000b0: ae38 063d 7cbf a73c 73c0 89bc 45e6 ff3c
000000c0: 919b 78bd 92c5 48b9 2559 a3bd 7cd9 fbbb
000000d0: 5301 923c 1750 b5bc f760 c03c f829 2e3d
000000e0: 7192 96bd 2eb7 8d3b 6428 1bbd 3552 14bd
000000f0: 2680 cdbb 30e0 623c e410 c3bd db1c 723d
00000100: 873e 57bc 93fb 0f3c aea9 ac3c ab37 923c
00000110: 971e 7f3d 065d f6bc ef8a 8c3d 1c32 6b3b
00000120: 069b e5bd d264 e7bd e851 c63d c651 5f3d
00000130: 0597 993d 94bb dd3c bbe8 c03d e6e7 b3bd
00000140: 1047 073d 26d3 93bd 4531 0bbd 45e3 30bd
00000150: 0a8f 8b3b 8d30 013e 3921 0e3e 683f 953c
00000160: 4505 323d 7c90 463d e484 f9bc 89f1 0abd
00000170: b324 223d 96c0 af3d cad1 c1bb 247d 8d3c
00000180: 2578 aabc c966 bc3b 43a0 5c3d b814 943d
00000190: d8d3 af3d e95e 1c3c 5588 663b 1df7 353d
000001a0: 7744 f33c a804 96bc d885 05bd 67f6 6f3c
000001b0: 2011 17bd 34f9 053d 7909 89bc 93b0 223d
000001c0: df40 b83c 79ab b4bc 83ea 343d 3b25 5fbd
000001d0: 7282 7cbc aab0 823c 9b39 7d3d ce60 1ebd
000001e0: 6a1d 2ebd 9d43 9c3d f469 8fbc 41ad c63a
000001f0: 0865 febb 2fb9 a83c 0a2d d93c 9cc8 6a3d
00000200: ce68 6fbd 97c1 4f3d 1373 05bd fe48 0e3c
00000210: 1deb 28bc fa22 e1bc 79ea 2ebc a800 523d
00000220: da3e bcbc c639 e2bc 1e43 8ebd b3ba ea3b
00000230: 5a9a 86bd 89df 2cbd 81ae 3a3d 351f 263d
00000240: aca7 503d b6ee ac3d 234b 6dbd 3613 a0bc
00000250: 0cbe c0bc 97d8 73bd 217e d43c fc80 eb3d
00000260: 3aec 10bc 4a91 cfbc 1058 853d 4401 bfbc
00000270: e527 c1bc e7f2 7d3c 0283 ca3c c553 81bd
00000280: fab9 d33d fec0 523d 0944 1fbd f030 16bd
00000290: fa46 693d c0dc 57bd 1d0f 583d 4667 e0bb
000002a0: 51fa 53bd 4c0f efbc 49f9 b13c 1a84 723b
000002b0: 7a01 373c 0df5 afbc 8eec a53d 1053 a43d
000002c0: 937d f93c 9bf3 0bbd 7943 efbc 41b9 cdba
000002d0: 6738 0f3c 2cfa 583d 9340 893d ace1 39bd
000002e0: 9d57 f3bc 4597 163d 9b07 873c ea3d c63d
000002f0: 5772 27bd ac0e 2e3b b649 bb3b 1620 c2bb
00000300: 50ac 3a3d d944 783c a842 f6bc a9db 1abd
00000310: 4d10 e93d eee6 afbc 39cd ab3b 2482 30bd
00000320: 5a0c 30bd d7b8 debb ef4a c73b 364c fe3d
00000330: ec08 20bd 5c11 c1bc c76a 4f3d fd4d e1bc
00000340: 3239 813d 7258 4d3c dc5c 10bd 0683 e63a
00000350: cf44 193e 730d 773d fa9f 54bd 418c 843d
00000360: 23e6 e03c 58fc e3ba ed26 253d ab7a 673d
00000370: e48c 313d f672 f83c bbc7 0bbd c7c8 06bc
00000380: ae8f 5dbc 9a3f 783d 1619 99bc 7b35 52bd
00000390: bf18 ee3c 7253 993b f6ec b6bc f2a3 593d
000003a0: a252 dbbd c842 debd 3a4d babd f9fb 3b3c
000003b0: 91a3 1e3c ecb3 653b 5887 de3d 886a e03c
000003c0: 1ddc 7dba 1947 c3bc 75f3 1dbd 8ee2 993c
000003d0: b855 f0bc 9972 b73c 3e87 1fbb 0ced 683d
000003e0: 4883 cabc 3526 b33d 7104 f9bc 0c11 533b
000003f0: f52d 48bd b6e3 a1bc eb1b ab3d f0ae 193c
-0.05583267 -0.009055131 -0.06356278 -0.0024429562 -0.04177105 0.013214654 -0.092590235 -0.006241471
-0.01399923 -0.06088913 -0.023615966 -0.09013957 -0.058159217 0.007922765 0.030981315 -0.054540362
-0.04180268 0.008172408 0.016589599 0.063356854 0.013740421 0.08784008 0.037657354 0.04200426
0.010675186 0.01753457 0.034178168 -0.027863631 0.016721142 -0.085472584 -0.037346333 0.028358547
0.021408528 -0.04947837 0.07764241 -0.029762857 -0.022143058 -0.030615008 -0.092016146 -0.04002484
0.091361396 -0.006748536 0.040721595 -0.07300793 0.032768898 0.020477049 -0.0168154 0.03123773
-0.060695235 -0.00019147087 -0.07975987 -0.0076858383 0.017822897 -0.022132916 0.023483736 0.042520493
-0.0735215 0.0043248152 -0.037880316 -0.03621121 -0.00627138 0.013847396 -0.09524706 0.05910955
-0.013137466 0.008788007 0.021077003 0.01784881 0.062285032 -0.030073654 0.06862437 0.0035888022
-0.11211209 -0.11298527 0.09683591 0.054521345 0.07499508 0.027066983 0.0941939 -0.087844655
0.033026755 -0.07218008 -0.033982534 -0.04318549 0.004258995 0.12616177 0.13879861 0.018218711
0.043462057 0.048477635 -0.030458875 -0.033921752 0.03958578 0.08581655 -0.0059149014 0.017271586
-0.020809243 0.0057495576 0.053863775 0.07230514 0.08585328 0.009544113 0.0035176475 0.04442512
0.029695733 -0.018312767 -0.032598346 0.014646149 -0.036881566 0.03270836 -0.01672815 0.039719176
0.02249187 -0.02205442 0.04416896 -0.054478865 -0.01541196 0.01595338 0.061822515 -0.03866654
-0.04250852 0.07630084 -0.017506577 0.0015157835 -0.0077635087 0.020596115 0.026510734 0.057320222
-0.05844956 0.05072173 -0.032580446 0.008684395 -0.010309962 -0.027482498 -0.01067602 0.051270157
-0.022979189 -0.02761544 -0.06946395 0.0071633696 -0.06572409 -0.042205367 0.045576576 0.040557105
0.050941154 0.08443968 -0.057932984 -0.01954041 -0.023528121 -0.059532728 0.02593905 0.11499211
-0.008845383 -0.025337834 0.06510937 -0.023316033 -0.023578594 0.015499807 0.024720673 -0.06314806
0.103382066 0.051453583 -0.038883243 -0.036667764 0.056952454 -0.052700758 0.05274879 -0.0068482487
-0.051752392 -0.029182099 0.021725314 0.0037005008 0.011169786 -0.021479154 0.0810176 0.080236554
0.030455386 -0.034167867 -0.029206978 -0.0015695469 0.008741475 0.052972957 0.0670177 -0.045381233
-0.029704863 0.036765356 0.016483119 0.09679778 -0.040880527 0.0026559038 0.005715574 -0.005924235
0.045574486 0.015153133 -0.030061081 -0.03780714 0.11380062 -0.02147242 0.0052429703 -0.04309286
-0.04298053 -0.006796937 0.006081931 0.1241688 -0.03907101 -0.023567848 0.05063894 -0.027503008
0.06309737 0.012533294 -0.035244808 0.0017586655 0.14967655 0.06031556 -0.051910378 0.06472064
0.027453488 -0.001739393 0.040320326 0.05651347 0.043347254 0.030328255 -0.034126025 -0.00822658
-0.013523025 0.06060753 -0.01868872 -0.051320534 0.029064534 0.004679137 -0.022329789 0.053134866
-0.1070912 -0.10852581 -0.09096761 0.011473649 0.009682552 0.0035049869 0.108656585 0.027394548
-0.00096839835 -0.023837613 -0.038562257 0.018784788 -0.029337749 0.022393512 -0.0024342085 0.05686669
-0.024720803 0.08747522 -0.030397626 0.0032206206 -0.048871953 -0.019761901 0.08354934 0.009380087

fc2.bias f4 [256]
00000000: 0d71 a839 a8e9 4e37 77f1 81b9 95f7 1639
00000010: 96f1 44b9 f810 2cb9 a65f f438 16d4 f138
00000020: 53cf af38 2572 9a39 6a1e b938 28a7 28b9
00000030: 25da a937 1200 3638 86e8 1e39 baae a3b8
00000040: 13ac 8bb7 0b38 5339 3af2 ff39 5138 52b9
00000050: b6bf a539 5c6e 9b37 4e33 3db8 ae3a 3e38
00000060: 3e5d aa38 127c 9638 4157 acb8 a865 68b8
00000070: 4dbb 9339 261b a8b9 d615 99b8 a08c 5136
00000080: f4f1 a537 7d95 3839 ea24 8f39 d5b1 4f38
00000090: a67b 5d38 c339 9fb8 617e 8f39 907e 3b36
000000a0: 9b74 4238 089a 7f37 1fc4 483a 1d9b b838
000000b0: e96b b1b8 100e 1db9 0c5c 94b9 0005 04b9
000000c0: 3097 4e36 94e0 9db8 e7f5 bcb9 9b0b be38
000000d0: 6cf6 3cb9 5947 2139 5f09 a3b9 36a6 a639
000000e0: f68d a638 65ba 5838 92f1 a5b8 4a8a 11b8
000000f0: 8a2e f6b8 8e7b adb8 a912 dd38 27b4 e738
00000100: b179 0039 7cf3 3338 7c9f 053a 2de3 9039
00000110: d877 0739 b592 af39 f84e d138 46d7 4238
00000120: 972e 80b8 7b70 b736 f1a4 1339 3148 d139
00000130: 8299 d038 3f4d a8b9 6a37 523a 72f2 4139
00000140: 9840 bf38 2aad 26b8 d032 a336 107c 87b9
00000150: fc8c e7b8 feb3 4739 1e33 b438 cfd4 8ab9
00000160: 60bb b138 e1f7 1639 12a9 deb9 78f5 ca38
00000170: 36c3 4e39 842b f4b7 bd0e 02ba 985a b1b8
00000180: d7aa 89b8 a2e1 9a38 1c17 0db8 f49b f5b8
00000190: 5629 d6b8 b927 1ab8 bdae 92b9 2e7e 24b9
000001a0: 788e 8eb9 1ec9 e238 be2a a638 60b9 95b8
000001b0: 3ee8 acb7 ba27 10b8 ac26 5039 bc8c 77b9
000001c0: ef5d d0b8 f6c2 5eb9 bd46 1e39 b204 33b8
000001d0: 0693 6e38 631d 97b8 f081 37b8 3733 ecb9
000001e0: 6e97 8cb8 4ebf c0b8 f848 edb9 6e49 dbb9
000001f0: a6c5 f139 6dc2 0a39 599d 39b9 79a8 01b9
00000200: 1c3d fb37 9818 59b9 f229 90b8 4414 ee38
00000210: 96d4 12b9 0652 3739 d165 80b8 68c4 bbb8
00000220: ae7a 3eb8 c12d 6ab9 02d0 9c39 021f 17b9
00000230: 655f afb8 5c30 8238 aab1 b038 194b 54b9
00000240: 500f 3cb8 9126 aa37 95fd 1c39 7e94 3139
00000250: da60 6639 0233 0c38 6815 3736 ded7 a7b7
00000260: 7425 92b8 ce46 3d39 bdb9 5839 c271 6e37
00000270: b4c0 80b9 ac74 9c38 e178 b9b7 22c0 c238
00000280: e22d 87b6 107f 3fb9 1bc6 1ab8 3541 6eb8
00000290: 1660 35b8 06ed 3139 ec05 4f39 7198 86b9
000002a0: 0b9f 81b9 0016 5f38 4fe3 6139 0470 81b7
000002b0: f842 d637 86e7 9739 e6a2 98b9 ac6c 8737
000002c0: 7e3a 5a39 ca47 fa38 0957 1038 7000 eab7
000002d0: 31ed c3b8 601e d435 df5c 1cb9 0ab6 2538
000002e0: 50f5 1238 f138 16b9 5864 a238 f9de 4e39
000002f0: 5410 d238 6cc4 e038 987f 32b9 d218 e538
00000300: caef da38 76d3 2b38 0a34 1dba 1564 37b9
00000310: 36c6 0439 9d18 e0b7 6529 9338 704b 20b8
00000320: 8098 18ba d055 4eb9 a045 ee39 e52f 1838
00000330: 6245 8db8 0b9e 8bb9 e2af e5b7 c547 13b9
00000340: f608 8c39 e089 3238 0ca2 ab38 8cc5 c8b6
00000350: 93e7 6139 7e86 4bb9 1568 5539 f0bf 3839
00000360: f6ec 1338 7706 57b8 7b12 0e39 1012 d237
00000370: 9f86 b638 e98a 3ab9 a7ca fcb9 7ef7 1bb9
00000380: 2e03 17b8 4e7e 0bb9 80d0 a439 aeeb 0539
00000390: 3ee5 3f38 ae79 04b9 edf4 8c38 f2d1 37b9
000003a0: afa0 0439 fce6 fd38 7f18 0738 6447 4a37
000003b0: b13a b038 0477 09b9 fa1f bdb9 80fd 83b5
000003c0: dabd 23b9 9f9a 38b9 b52a 3d38 d0d4 ec36
000003d0: 4788 49b8 1d29 7db8 0ac6 13b9 4054 1736
000003e0: 305f 8a38 3613 3137 7b6b 86b9 73e7 b639
000003f0: cc60 b937 b5b9 41b9 a61c 8639 291f 2cba
0.00032127686 1.2332959e-05 -0.00024784703 0.00014397346 -0.00018782014 -0.0001640952 0.000116526426 0.000115312796
8.3832674e-05 0.00029458213 8.8271525e-05 -0.00016083999 2.0247951e-05 4.3392247e-05 0.00015154676 -7.804991e-05
-1.665022e-05 0.00020143406 0.00048817863 -0.0002004814 0.00031614088 1.852883e-05 -4.5108893e-05 4.535418e-05
8.1235994e-05 7.175667e-05 -8.2178514e-05 -5.5407785e-05 0.00028177575 -0.00032063684 -7.299676e-05 3.1225281e-06
1.9782201e-05 0.00017603296 0.0002730259 4.9518265e-05 5.2805663e-05 -7.59247e-05 0.00027369245 2.793884e-06
4.63618e-05 1.5235048e-05 0.0007658619 8.802696e-05 -8.4601175e-05 -0.00014977925 -0.0002829734 -0.00012590364
3.0784395e-06 -7.528174e-05 -0.00036041366 9.062068e-05 -0.00018020876 0.00015380736 -0.00031096765 0.00031785824
7.941939e-05 5.1672007e-05 -7.912809e-05 -3.4699486e-05 -0.00011738863 -8.272297e-05 0.00010541577 0.00011048494
0.00012252365 4.2903688e-05 0.00050973124 0.0002763508 0.00012919249 0.00033487906 9.980606e-05 4.6453693e-05
-6.112194e-05 5.4669194e-06 0.00014080458 0.00039917373 9.946806e-05 -0.0003210101 0.00080191216 0.00018496232
9.119621e-05 -3.9738756e-05 4.863694e-06 -0.0002584164 -0.00011041199 0.00019045171 8.59259e-05 -0.00026479966
8.474919e-05 0.00014397457 -0.00042469107 9.677833e-05 0.00019718413 -2.910733e-05 -0.00049613026 -8.456892e-05
-6.5644905e-05 7.3853196e-05 -3.3638542e-05 -0.00011711559 -0.000102120146 -3.6753456e-05 -0.0002797748 -0.00015687264
-0.00027190498 0.00010813981 7.923458e-05 -7.1394024e-05 -2.0612144e-05 -3.4369274e-05 0.00019850832 -0.00023608183
-9.9357094e-05 -0.00021244198 0.00015094406 -4.26813e-05 5.6880548e-05 -7.205715e-05 -4.3751614e-05 -0.00045051586
-6.703926e-05 -9.190907e-05 -0.0004525853 -0.00041825644 0.00046114362 0.00013233135 -0.00017701591 -0.0001236516
2.9949988e-05 -0.00020703895 -6.874268e-05 0.00011352499 -0.0001400284 0.00017482796 -6.1224804e-05 -8.9534384e-05
-4.5413784e-05 -0.00022333024 0.00029909617 -0.00014412033 -8.362419e-05 6.207891e-05 8.4254265e-05 -0.00020245872
-4.4836954e-05 2.0283538e-05 0.00014971786 0.00016935353 0.0002197059 3.3426106e-05 2.7281585e-06 -2.0008472e-05
-6.968799e-05 0.00018050821 0.00020668558 1.4212392e-05 -0.00024557638 7.4603915e-05 -2.2110007e-05 9.2864284e-05
-4.028655e-06 -0.00018262514 -3.690096e-05 -5.680435e-05 -4.324325e-05 0.00016968334 0.00019743264 -0.0002567205
-0.00024723294 5.3187832e-05 0.00021542351 -1.543016e-05 2.5541973e-05 0.00028973463 -0.00029113068 1.6143858e-05
0.0002081189 0.00011934301 3.4413333e-05 -2.7895177e-05 -9.342505e-05 1.5804071e-06 -0.00014911917 3.9508603e-05
3.5037578e-05 -0.00014326327 7.7434524e-05 0.00019728755 0.00010016622 0.00010717739 -0.00017022935 0.00010924194
0.00010439714 4.0966515e-05 -0.0005996829 -0.00017489523 0.0001266234 -2.6714342e-05 7.0172166e-05 -3.821723e-05
-0.0005821064 -0.00019677659 0.00045446772 3.628423e-05 -6.7363275e-05 -0.00026629897 -2.738083e-05 -0.00014045749
0.00026709557 4.2566913e-05 8.184099e-05 -5.983462e-06 0.0002154394 -0.00019409691 0.00020352037 0.0001761911
3.526822e-05 -5.1266015e-05 0.0001354906 2.5042362e-05 8.7035114e-05 -0.0001779009 -0.00048216173 -0.0001487415
-3.6004167e-05 -0.00013303125 0.00031435862 0.00012771666 4.5751447e-05 -0.0001263383 6.721341e-05 -0.0001753045
0.0001264836 0.00012107004 3.2209322e-05 1.205676e-05 8.403266e-05 -0.00013109675 -0.00036072714 -9.834039e-07
-0.00015615617 -0.00017605208 4.5100885e-05 7.0581227e-06 -4.8049053e-05 -6.035819e-05 -0.00014092788 2.2549793e-06
6.598083e-05 1.0554495e-05 -0.0002563855 0.00034886188 2.2098793e-05 -0.00018475096 0.00025579816 -0.00065659225
