models/win_predictor_mlp_simulation.pt (torch, 940095 bytes, 19 tensors)

fc1.weight f4 [512, 126]
00000000: 3c57 483e 7bf2 f53d 514a 873d b73d 2cbd
00000010: ea39 0a3d 2b2b 9dbd 533a 11bd a9fa 37bb
00000020: 0b67 9f3c d97f 023e 5e1e 223e 90f6 7a3c
00000030: b934 18bd 8a15 7c3c e78c 983d 1dea 3bbc
00000040: 0161 f43d 61ce 13bd 50b2 b5bd 55f2 86bc
00000050: 8ee1 3a3d 7454 293e 3fa8 673d 98d1 abbd
00000060: cb38 9c3d f551 ff3c 942f 3abe 9420 cfbd
00000070: 1f7c ba3b 4577 373d 02e8 1cbd 7f2c 1b3e
00000080: db6c babd 13cd 7a3e 475b 37bc 7a51 5f3c
00000090: 7f39 4fbd 84cd 47bc a0fc 993d dce6 453e
000000a0: 7ce8 873d 2f87 0b3d d7e6 3e3d 998e 7ebd
000000b0: 22c8 eb3c 07f8 b13d b522 873d f68c 003e
000000c0: f0ec 483d d882 dcbb b9a2 bebb ea16 be3d
000000d0: f971 2c3d 9f38 b4bc b319 e83c b154 9dbc
000000e0: 7462 ad3c 3c0b 723d 551e a93d c935 2b3d
000000f0: be46 af3b dd6b cb3c e699 0dbd 0409 133e
00000100: 633b 4d3d 33dc 923d d00a 83bc b121 003d
00000110: 6d84 3d3d c40a 353c a323 5b3d f7ea 4abd
00000120: e6e8 cfbb 2d33 583d 767b c53d c961 0a3e
00000130: 4ddb 88bc e68f 1a3d 14df e93d 7f04 05ba
00000140: 20a4 dbba 5751 a63d e08e ae3d 8734 c1bc
00000150: 05ff 103d 29ab 54bb c980 2fbd 34be abbd
00000160: cef3 aa3d d377 963d 9b1b 11bd 718c bbbd
00000170: 00de ac3d 75ce fb3d c5f7 8e3d 98a4 42bd
00000180: 8996 4f3d 473c d23d 2230 7f3d 9447 203d
00000190: d039 f2bd f347 8cbd 6ddd 84bd ee6f f13c
000001a0: 8405 d2bd d39e 753c 556f 013e 1b0e 2b3d
000001b0: dc5a 873d cac2 cc3d 19a0 02bb dc68 783b
000001c0: d077 bbbd 0adb 9b3c 47a1 cdbc aade 0dbd
000001d0: 5763 15bd 842d 6d3d 7ede e3bc 553d 193d
000001e0: 667e 94bc 33f7 0c3e 56f4 fc3d 08ff f2bd
000001f0: d532 ad3c b2c9 ad3c bf14 02be bc70 e43c
00000200: 8437 cdbd 41b2 d2bd fc4f 26be eccd 613d
00000210: c038 a53d 203e 01be f6fa f4bd 3290 85bd
00000220: 2619 55be 8390 79bd 627a 983d 53ba fd3c
00000230: 964a 7c3d 68f0 4c3c bac1 403d 0a0a 9b3c
00000240: 7f0a c03d dc9e f23d d9d8 38bd 76b2 20be
00000250: 5801 bebd 35ed c8bb fb0d 27be 21d8 2a3b
00000260: 1e45 283e 83e9 82bd 207b 863d ffda 13bd
00000270: 90ad 42bd 0ad8 003d 6267 aabd 13ec d1bd
00000280: 56d6 d0bc 0e50 e4bd baa8 cebd 6d0c efbd
00000290: 9b0a 98bd e1c7 f83d 8b2c 0c3c 2bd5 d7bc
000002a0: cf1f b4bd 69b8 1cbd 3671 1e3d a179 a63d
000002b0: 48cc b1bd e840 51be e480 193e b9e7 203c
000002c0: 08a7 2cbd afd5 a9bd 9802 18bd c2e9 ebbd
000002d0: 6f79 0bbd 7357 613d 26e4 09bd 5cbf 03be
000002e0: 8e6e 7e3d 7359 b73d d0e2 a03d 923c d03d
000002f0: b5c2 a93d 6f0f 88bd f2e9 a5bd 43e0 0a3d
00000300: b8c4 c03d e06c 62bd 60f7 84bc d6f1 c5bd
00000310: 6333 053d 5056 97bd 90a9 94bd c489 043e
00000320: 0a3c 763d 94a9 c4bd 8671 013d 2a04 16bd
00000330: 5923 da3d 36e7 dfbd 23f0 5a3d 6bea f1bd
00000340: 4149 4c3d 93c2 933c 9733 40bd 3f6b cfbd
00000350: d619 d83c 5f54 9fbd 5002 2bbe 5737 dfbd
00000360: 1a18 37bd f10d 8c3d ea27 c4bd ceb0 803d
00000370: 5cb3 f93c 600c 82bd f377 1dbd b464 4ebd
00000380: 02b3 9cbd 3834 083e 317e e83d ec7d 66bd
00000390: 1173 0d3e 75a8 1c3d 964f dd3b 4243 e23c
000003a0: 240d 1cbd 0184 24bd 13b0 a6bd b8a9 7abd
000003b0: 196c 9a3d 7bf4 b13c 07fd 04bd 61a1 f4bd
000003c0: 6434 043c e570 723d f5ca de3c 32c9 293b
000003d0: 4085 1b3e eb58 2abe fa29 fbbd 5dca 913d
000003e0: ab32 a13d 51d0 d13c 61d2 173d 6c74 a4bd
000003f0: 3381 2fbe 9217 7c3d 34be 9b3c f708 85bd
0.19564527 0.1200914 0.066059716 -0.042051043 0.033746637 -0.07674249 -0.035456013 -0.002807299
0.019458314 0.12744083 0.15831897 0.015317574 -0.037159655 0.015385995 0.0744875 -0.011469391
0.119325645 -0.03608549 -0.08871901 -0.016472975 0.045625262 0.16536123 0.056556936 -0.08389586
0.0762802 0.03116701 -0.18182212 -0.10113636 0.005691066 0.04479148 -0.038307197 0.15153693
-0.09102794 0.24492292 -0.011191196 0.013630265 -0.050591942 -0.012194995 0.075188875 0.19326347
0.0663614 0.034064468 0.046606865 -0.06214771 0.028781954 0.086898856 0.06598417 0.12553772
0.049054086 -0.006729465 -0.005817738 0.09281714 0.04210088 -0.021999655 0.028332567 -0.019205423
0.02116511 0.059092745 0.082577385 0.04179934 0.0053490093 0.024831707 -0.034570597 0.14358908
0.050105464 0.07170906 -0.015996367 0.03128213 0.04626887 0.01104993 0.053500783 -0.049540486
-0.0063449023 0.05278318 0.09642689 0.13513865 -0.016706133 0.03773489 0.11419502 -0.00050742173
-0.0016757287 0.08120983 0.08523345 -0.023584617 0.035399456 -0.0032450652 -0.04284743 -0.08385888
0.08347283 0.073470734 -0.035426717 -0.091576464 0.08440781 0.12295238 0.06980852 -0.04752025
0.05068067 0.10265403 0.062301762 0.039130762 -0.11827433 -0.06849661 -0.06487546 0.029472318
-0.10254958 0.01499148 0.12640126 0.0417615 0.06609127 0.099980906 -0.0019931851 0.0037904298
-0.09153712 0.019025344 -0.025101317 -0.034636177 -0.03647169 0.057904735 -0.027816053 0.037412006
-0.018126678 0.13766174 0.12351291 -0.118650496 0.021142403 0.02121434 -0.12703227 0.027885787
-0.100203544 -0.102879055 -0.16241449 0.055128023 0.08067465 -0.12621355 -0.119619295 -0.06521644
-0.20810375 -0.060928833 0.07445218 0.030972635 0.06159457 0.012508489 0.047059752 0.018925685
0.09377002 0.11846706 -0.045128677 -0.15693077 -0.092776 -0.006131793 -0.16313927 0.0026068764
0.16432616 -0.06392195 0.06566453 -0.036097523 -0.047528803 0.03145603 -0.083205 -0.10250106
-0.025492828 -0.11148082 -0.10090776 -0.11672292 -0.07423898 0.12147499 0.008555542 -0.026346764
-0.087951295 -0.038261805 0.038682185 0.081286676 -0.08681542 -0.20434916 0.14990574 0.009820872
-0.04215148 -0.0829271 -0.03711185 -0.11519195 -0.034051355 0.05501504 -0.033664845 -0.12865967
0.062117152 0.08952608 0.07855761 0.10167803 0.082890905 -0.06643569 -0.08101262 0.03390528
0.09412521 -0.055279613 -0.016231239 -0.09665267 0.03251971 -0.0738951 -0.07258904 0.12943178
0.06011585 -0.09602657 0.031602405 -0.036625065 0.10651273 -0.10932772 0.05345167 -0.1181229
0.049874548 0.018037116 -0.0469242 -0.101278774 0.026379507 -0.077797644 -0.16700101 -0.10899227
-0.04470072 0.068385966 -0.095779255 0.06283723 0.030481033 -0.063500166 -0.03844447 -0.050389007
-0.076513305 0.1330117 0.11352194 -0.056272432 0.13813426 0.03824659 0.006753872 0.027619962
-0.03809847 -0.04016495 -0.08139052 -0.061197013 0.07540149 0.021723023 -0.03246787 -0.11944843
0.0080691315 0.059189696 0.027196387 0.0025907275 0.1518755 -0.16635482 -0.12263866 0.07118676
0.07870992 0.025612028 0.037065867 -0.08030018 -0.1713913 0.061545916 0.019011594 -0.064958505

fc1.bias f4 [512]
00000000: faf7 00ba 0254 8339 5fdc 82b9 3510 9337
00000010: 7ac6 5c38 a462 2338 10a5 fcb8 3bd3 af39
00000020: 2146 09b8 e2af 5b38 086e 2bb6 87ea 03b9
00000030: c82a 3439 f34a 29b7 a150 9a39 367f 3e38
00000040: 8f9b f137 b2a7 72b7 cc52 b337 950c 9e38
00000050: 7a30 91ba 210a da37 403a 6db7 f070 7738
00000060: e032 e5b6 b402 b139 49ae 0cb8 201b 2239
00000070: 8e48 6b37 50e5 2ab9 c3e1 0fb8 c570 4bb8
00000080: 34d9 8bb7 959d 7d39 1024 49ba 2364 ef38
00000090: 618d 34b8 a233 4238 1c02 abb9 6a6b 14b9
000000a0: 1249 2639 6080 dfb8 e413 12b7 74fa 3b38
000000b0: 478f abb8 f3eb d6b8 6e60 7eb8 15d2 4bba
000000c0: 2abc 8139 7e59 8538 4d46 e438 4241 103a
000000d0: 2eb0 6db9 d20a b638 00ef fd37 8295 bdb8
000000e0: 12c6 4ab6 cbc8 b939 01ed 8eb8 b05a 8cb9
000000f0: f151 7ab6 e1a1 84b8 3a56 ed37 e17e 4fb9
00000100: 53ae 61b9 24ac eb38 82d7 4fb9 e159 d338
00000110: be6b 2738 3462 90b8 8c36 a3b8 64e8 8136
00000120: 77e8 8db9 843c 70b9 df56 10ba 2bc8 ffb8
00000130: e913 8db9 f234 1db9 70e3 9ab7 27a1 f7b7
00000140: 4d4d 61b9 90fb 5439 a4d0 62b9 c03d 24b9
00000150: f37d 0fb8 edfb 8837 046d f637 9aa5 d7b6
00000160: 00b0 313a 0c7f 4c38 2a3c c0b8 1810 1437
00000170: e2bd 6739 25ea bbb7 806e 9536 42a7 b139
00000180: 6872 c3b6 b8da 0239 5c5d 3337 8447 7738
00000190: 9e0f 8438 2d7b 8739 7612 86b9 ec38 e738
000001a0: 4e62 9538 729c ce37 5006 30b9 0cc0 af38
000001b0: 3a3f ae38 fa1f 193a 3c65 e8b7 7391 36b8
000001c0: 5e7a ccb7 56f8 2239 7ac7 b7b8 bc76 ea37
000001d0: e2e1 2a3a b7d0 b138 16ee 8038 9da9 9438
000001e0: 65d3 aa38 cc3a 1f38 7092 f837 b4b0 da39
000001f0: aed1 81b8 8cc5 68b9 14a9 b639 601f e0b8
00000200: d6a8 f0b8 d763 a838 cad0 dbb8 9f1d ffb8
00000210: d401 4ab7 4b01 a9b7 c57b d4b7 655e b9b8
00000220: 41f8 30b8 7ec1 2339 1dad 89b7 21e2 0538
00000230: a0d7 72b9 07ea deb8 b52c 9fb9 a5f5 6638
00000240: 4c08 0438 7e9b 55b8 1dac 9ab8 1886 5b38
00000250: 1b69 76b9 109b 5838 6eaf a0b8 30b7 fbb7
00000260: fca1 b539 70d8 073a c654 e838 8a4c ac38
00000270: d4b6 37b9 e2ee 4539 3043 0237 a69c beb8
00000280: d82f 4fb8 5526 08b9 6046 0738 e0d7 1039
00000290: 7029 3fb8 1659 1939 56e2 c8b9 0997 21b9
000002a0: 08e3 6939 0eb0 8cb8 b221 0538 92c8 cd38
000002b0: 61cf 13b9 5030 8539 2aa7 bd38 3b4b 5eb8
000002c0: 02a1 2a39 ac0d 10ba 147d af38 a040 6cb9
000002d0: a0bd 35b9 a200 13b9 4e77 ccb8 9c6c 2238
000002e0: eb61 7439 a7b6 cd38 908b 45b7 e021 97b8
000002f0: 4482 deb8 ea8d abb7 86b6 1a38 1ac6 3738
00000300: 75a4 a439 8b8c 5e39 d9b2 c338 607f f6b6
00000310: 004a 5fb8 a4b3 0fb9 dafd 0a37 f812 1638
00000320: 3ae8 ad36 1857 51b9 2a6f 44b8 cbf3 eeb8
00000330: 1e89 0239 ce78 fc38 74e8 7138 b237 1539
00000340: 78c6 3939 fbf1 1d38 97a6 bcb9 2d9e 45b8
00000350: 8ce3 cab8 5cac e939 7cf2 d0b8 0228 cdb9
00000360: f0ca 7f39 d87a 8337 f8d5 ac38 1022 fd38
00000370: b4a7 c7b8 11ba dbb7 562b 3638 5281 5238
00000380: cb04 c8b8 31b1 b3b9 ce81 e8b8 fc9a 3b38
00000390: 776d 0eb9 58dd cfb8 e3c2 a738 09b7 a438
000003a0: 8d37 91b9 c047 6cb8 7bae d939 24ff 8138
000003b0: 29e9 ddb7 da68 21b8 3edd 8639 e0b7 2eb7
000003c0: 4d13 7ab8 2cdd d3b6 acd4 02ba 5ae2 d636
000003d0: 317d e0b8 2eca 183a b400 b5b6 cce4 fe38
000003e0: aa23 c338 8871 e2b8 5f86 9039 3d87 29ba
000003f0: bc4a eb38 5095 d9b7 971c 69b9 28bb d4b8
-0.0004919764 0.00025048858 -0.00024959721 1.7531313e-05 5.2636933e-05 3.8954095e-05 -0.00012047042 0.0003353598
-3.2728658e-05 5.2377472e-05 -2.5545032e-06 -0.00012580502 0.00017182075 -1.0090635e-05 0.00029433242 4.5418004e-05
2.8801876e-05 -1.4463369e-05 2.1377018e-05 7.536371e-05 -0.0011077069 2.5992342e-05 -1.4139863e-05 5.899457e-05
-6.8306545e-06 0.00033762085 -3.3540917e-05 0.00015459629 1.40239845e-05 -0.00016297889 -3.4304114e-05 -4.8503996e-05
-1.6671234e-05 0.00024186664 -0.0007672915 0.0001141506 -4.3047014e-05 4.630129e-05 -0.00032617233 -0.00014154395
0.00015858214 -0.0001065738 -8.706909e-06 4.4817527e-05 -8.180603e-05 -0.00010248264 -6.0648126e-05 -0.000777514
0.0002474499 6.3586034e-05 0.00010884982 0.0005502888 -0.00022667713 8.680452e-05 3.0271243e-05 -9.04007e-05
-3.0215638e-06 0.00035435552 -6.815233e-05 -0.00026770448 -3.73006e-06 -6.324403e-05 2.8292754e-05 -0.00019788324
-0.00021522613 0.00011237737 -0.00019821341 0.00010078005 3.9916245e-05 -6.884747e-05 -7.782606e-05 3.8715534e-06
-0.00027066816 -0.00022910727 -0.0005506109 -0.00012196632 -0.0002690845 -0.0001499241 -1.846414e-05 -2.9519737e-05
-0.00021486469 0.0002031161 -0.00021630764 -0.00015663262 -3.4211156e-05 1.6329775e-05 2.937625e-05 -6.426778e-06
0.000677824 4.875571e-05 -9.16648e-05 8.8252345e-06 0.00022100614 -2.240117e-05 4.45341e-06 0.00033884688
-5.8247715e-06 0.00012479245 1.0690968e-05 5.8955993e-05 6.2971594e-05 0.0002584098 -0.00025572226 0.00011025541
7.123184e-05 2.4629964e-05 -0.0001678702 8.380422e-05 8.3087434e-05 0.00058412517 -2.7703696e-05 -4.352764e-05
-2.4375677e-05 0.00015542036 -8.7632754e-05 2.7950264e-05 0.00065186445 8.478894e-05 6.1478626e-05 7.088783e-05
8.145607e-05 3.7963313e-05 2.9632094e-05 0.00041711854 -6.190255e-05 -0.00022198836 0.00034839718 -0.000106869964
-0.0001147554 8.029461e-05 -0.00010481624 -0.00012164865 -1.2040564e-05 -2.0146972e-05 -2.5330004e-05 -8.83907e-05
-4.2192874e-05 0.00015616973 -1.6412285e-05 3.192027e-05 -0.00023159245 -0.00010629376 -0.00030360153 5.5065047e-05
3.147898e-05 -5.092797e-05 -7.375351e-05 5.2338553e-05 -0.00023499543 5.1642826e-05 -7.662071e-05 -3.0006835e-05
0.00034643698 0.0005182093 0.00011078412 8.2158556e-05 -0.00017520349 0.00018876375 7.764247e-06 -9.089084e-05
-4.9397204e-05 -0.0001298425 3.225205e-05 0.0001381333 -4.557654e-05 0.00014624404 -0.00038315606 -0.00015410421
0.00022305187 -6.708513e-05 3.1741052e-05 9.812521e-05 -0.00014096267 0.00025403732 9.043359e-05 -5.299899e-05
0.00016272443 -0.00054952013 8.367948e-05 -0.00022530789 -0.00017332146 -0.00014019248 -9.7497e-05 3.872496e-05
0.0002330613 9.8091834e-05 -1.1774609e-05 -7.206551e-05 -0.00010610049 -2.0450872e-05 3.688645e-05 4.3815096e-05
0.00031403048 0.00021223926 9.3316376e-05 -7.3461997e-06 -5.323626e-05 -0.00013704464 8.284545e-06 3.5780453e-05
5.1828365e-06 -0.00019964238 -4.683357e-05 -0.00011394134 0.00012448846 0.00012038798 5.7675366e-05 0.00014230495
0.0001771691 3.765708e-05 -0.00035982273 -4.7115773e-05 -9.6744945e-05 0.0004456964 -9.963379e-05 -0.00039130455
0.00024394295 1.567362e-05 8.241454e-05 0.00012070325 -9.5202966e-05 -2.6193478e-05 4.343254e-05 5.018834e-05
-9.537636e-05 -0.00034273558 -0.000110868 4.4728615e-05 -0.00013582954 -9.911758e-05 7.999481e-05 7.854222e-05
-0.00027697944 -5.6333607e-05 0.00041519463 6.198723e-05 -2.6453827e-05 -3.8483042e-05 0.0002572331 -1.041402e-05
-5.962262e-05 -6.314038e-06 -0.0004990797 6.404048e-06 -0.00010704471 0.0005828467 -5.394302e-06 0.000121542806
9.3049675e-05 -0.000107976666 0.00027565935 -0.00064669905 0.000112195936 -2.5937945e-05 -0.00022231262 -0.00010143808

bn1.weight f4 [512]
00000000: 99a7 853f 523d 843f e70c 853f fed6 843f
00000010: a57f 813f 3d0f 783f e413 713f 90f6 823f
00000020: 9092 813f 49ea 873f b5e8 7d3f 39ae 803f
00000030: 2ab8 883f 29b1 6f3f 2d7f 713f 956f 8c3f
00000040: 9172 853f 4640 7f3f 9a7c 7a3f 9121 7d3f
00000050: 3a83 773f 7bbb 833f 66f7 863f 0ecf 823f
00000060: 5fe0 733f 632e 673f af47 803f 0795 8c3f
00000070: 6504 663f d480 893f 3a1f 733f bca0 823f
00000080: 9a71 7d3f 7213 7f3f 784c 833f a7f6 893f
00000090: 633c 793f 56b5 7c3f 28f1 803f 6ed9 833f
000000a0: 6ce7 7c3f 9f74 873f ba92 823f fc04 863f
000000b0: e8cb 8a3f e0b8 7b3f cb2d 823f 001c 803f
000000c0: 2c96 7e3f 8cfb 7a3f 20f8 823f a41c 883f
000000d0: 9342 7d3f 5a09 713f ffc4 743f ce0f 733f
000000e0: 0f06 603f 7f85 813f 3d83 803f 3a6f 833f
000000f0: 5a86 663f 4825 823f 8358 7f3f f4ff 753f
00000100: 4021 833f b4e5 7e3f ecb2 733f 7b7d 773f
00000110: a646 853f 7eaa 773f 399e 713f edba 7a3f
00000120: 7fc0 713f 0b70 7f3f 3f28 7e3f c345 893f
00000130: 1c0c 713f c239 6e3f a8e3 833f 5054 863f
00000140: bf31 7f3f f093 8d3f 67a3 6e3f 3974 743f
00000150: 3804 663f c0d7 833f 3cc5 653f eeec 733f
00000160: 84e0 7e3f 6b60 743f 8197 8b3f 0bf2 813f
00000170: a4d8 883f cc00 7d3f a863 723f fb04 7f3f
00000180: 7346 693f b55e 743f d202 743f bb21 663f
00000190: 6257 803f 138c 833f 244b 823f 3dcc 723f
000001a0: a276 803f 1230 6f3f 910a 743f ab1b 6c3f
000001b0: fcf8 703f 4fce 8b3f bea8 793f a319 803f
000001c0: 71a0 813f f479 813f 3b70 863f 7693 7a3f
000001d0: ea80 813f 2706 8c3f 2740 653f ec06 823f
000001e0: d49d 673f 3fad 7d3f eb6a 803f 906e 823f
000001f0: 366f 8d3f a3ef 783f 1146 8a3f 726f 843f
00000200: 7e18 843f f46c 673f 7193 783f 7432 803f
00000210: 9b0b 763f b3c7 803f 2263 883f 4faf 723f
00000220: b636 853f 4f00 693f 6326 693f 8270 823f
00000230: 626c 863f 468d 883f 3711 803f 8319 7f3f
00000240: 7618 7c3f 9ee3 7b3f acfc 6a3f d3e0 803f
00000250: c460 7e3f 66c3 883f 76e3 823f 0eee 7c3f
00000260: f395 623f edf8 883f a930 7f3f bc1f 743f
00000270: 3550 803f b40d 753f 08c2 803f 2f46 843f
00000280: 8291 873f cd26 7b3f 0c34 883f a267 793f
00000290: 223b 7b3f 6416 7c3f cbeb 803f e8e0 7c3f
000002a0: 2c4b 733f 7d09 803f ddb6 833f cd0a 8e3f
000002b0: 3b51 823f 596a 763f 7e6c 843f 3c5f 803f
000002c0: d4fc 6a3f 3d65 843f e666 813f 393e 8d3f
000002d0: 836e 663f 765b 823f e1f8 743f 2ea5 843f
000002e0: e7f0 803f cdff 853f 2a48 863f 4694 893f
000002f0: dd67 823f f29f 773f 0b00 763f 8a1c 883f
00000300: 3012 8a3f 2342 7e3f 416b 803f 022b 783f
00000310: 8bb4 8b3f b921 6a3f 4a8f 843f 36f4 783f
00000320: ae5e 673f bc11 803f b86a 843f 48db 873f
00000330: 959a 833f 9c78 6f3f f904 823f 8fee 853f
00000340: d087 633f a400 7a3f 35fa 863f fd29 643f
00000350: 1071 863f 204c 823f bb33 6c3f 7f03 723f
00000360: 5292 863f eeff 6a3f 048a 813f 3e75 8b3f
00000370: b649 6b3f 5801 823f 76a3 793f 6813 6c3f
00000380: 7240 843f 9988 8c3f 7c37 8e3f c061 843f
00000390: 40f5 7b3f eba9 6f3f c5aa 893f 0065 883f
000003a0: 8a50 7f3f 180d 7b3f ae19 813f bd83 843f
000003b0: f0ad 763f 092f 833f 3913 7e3f 4661 803f
000003c0: 3c00 803f 265e 803f f578 7c3f 0277 753f
000003d0: 56ed 773f 1c88 793f 4dde 723f 7d25 7d3f
000003e0: afa0 723f cac2 863f 7876 6e3f 2d8c 873f
000003f0: 7881 833f 3fa3 843f 2778 823f 9ca7 7c3f
1.0441772 1.0331213 1.0394562 1.037811 1.0117079 0.9689825 0.94170976 1.0231495
1.0122852 1.0618373 0.9918321 1.0053169 1.0681202 0.936297 0.9433468 1.0971552
1.0425588 0.9970745 0.97846377 0.98879343 0.9668461 1.029159 1.054425 1.0219438
0.9526424 0.90305156 1.0021876 1.098298 0.89850456 1.074244 0.9496952 1.0205302
0.9900147 0.99639046 1.0257711 1.0778397 0.9735777 0.98714197 1.0073595 1.0300729
0.9879062 1.0582465 1.0201027 1.0470271 1.0843477 0.9832897 1.0170225 1.0008545
0.99447894 0.9804008 1.0231972 1.063374 0.9892971 0.94154894 0.9561309 0.9494599
0.87509245 1.0118865 1.0040051 1.0268319 0.90048754 1.0167627 0.99744433 0.9609368
1.0244522 0.9956925 0.9519489 0.96675843 1.0412185 0.96744525 0.94382054 0.97941476
0.9443435 0.9978034 0.9928016 1.0724415 0.941591 0.9305688 1.030385 1.049448
0.9968528 1.1060772 0.9321808 0.9548984 0.8985019 1.0300217 0.8975408 0.952834
0.99561334 0.9545962 1.090561 1.0151991 1.0691113 0.9882934 0.94683313 0.99616975
0.9112312 0.9545701 0.95316803 0.8989522 1.0026667 1.0277122 1.0179181 0.9484289
1.0036204 0.93432724 0.95328623 0.9222972 0.9412992 1.0922335 0.97523105 1.0007824
1.0127088 1.0115342 1.0503 0.9788126 1.0117466 1.0939378 0.89551014 1.0158362
0.904752 0.9909248 1.0032629 1.0189991 1.1049564 0.97240657 1.0802633 1.034651
1.0319974 0.90400624 0.9709998 1.0015397 0.9611146 1.0060943 1.0655253 0.9479875
1.0407321 0.91016096 0.910742 1.0190585 1.0501826 1.0668113 1.0005254 0.996483
0.98474824 0.9839419 0.91791797 1.0068611 0.993664 1.0684631 1.0225666 0.9880074
0.88510054 1.0700966 0.99683625 0.9536092 1.0024477 0.95724034 1.0059214 1.0333918
1.059128 0.9810608 1.0640883 0.97423756 0.98137105 0.98471665 1.0071958 0.9878068
0.9503658 1.0002896 1.029018 1.1097046 1.018104 0.96256024 1.0345609 1.0029063
0.91792035 1.0343395 1.0109527 1.1034614 0.9001238 1.0184162 0.9569226 1.0362909
1.0073518 1.0468689 1.0490773 1.0748374 1.0187947 0.9672843 0.96093816 1.063371
1.07868 0.99319667 1.0032731 0.96940625 1.0914472 0.91457707 1.0356228 0.97247636
0.90378845 1.0005412 1.0345068 1.0613794 1.028155 0.9354341 1.0157768 1.0463427
0.8887911 0.9765723 1.0545107 0.8912657 1.0503254 1.0179482 0.92266434 0.94536585
1.0513403 0.9179677 1.0120244 1.0895154 0.9190935 1.015666 0.97515047 0.9221711
1.0332167 1.0979186 1.1110682 1.0342331 0.98421097 0.9361865 1.075524 1.0655823
0.9973227 0.98066854 1.0085962 1.0352703 0.9635916 1.0248729 0.9924808 1.0029685
1.0000072 1.0028732 0.98622066 0.95884717 0.9684652 0.9747331 0.94870454 0.9888533
0.94776434 1.0528195 0.9314952 1.0589653 1.0273886 1.0362319 1.0192918 0.9869325

bn1.bias f4 [512]
00000000: ff6c 723d 53da dd3c 5f06 323d 7870 973d
00000010: 74ba b3bb 609a 8bbd 473f febc 07b2 68bc
00000020: 8078 1bbc b5c7 42bd 4d52 7dbd e6f9 1dbd
00000030: 40a7 3e3d faf5 fabc c062 4639 af5f 803d
00000040: 5c07 41bd 4ec3 f53b 9de7 6cbd 8ecd 67bd
00000050: fe94 1a3d fa4a 283c 2ede bc3c 6454 25bd
00000060: 093f 43bd 0706 7bbd 8693 173c b802 3c3c
00000070: 5824 e0bd a52f 803b a595 4abd 255f 8039
00000080: 4543 663c cca6 e23c 70eb ac3c 959c e93c
00000090: 5d2e 20bd c74a e839 e5cb 6ebc 00c2 133c
000000a0: efdd b83b e12b 513d e839 013c 837a 0b3d
000000b0: fbce 343d 3cef a93c 0ee6 e53b 57ac 05bd
000000c0: 0199 08bc 548e 85bc 8c6a 2dbc d4f7 293c
000000d0: 04b0 1ebd 9829 893b 0aba c6bd 9551 f4bc
000000e0: 9f24 7dbd 9605 163c fbad 753b 900e 00bc
000000f0: d78d ddbd afdd 08bb 5550 da3b fe47 d7bd
00000100: 206c c13c 1f69 64bc de28 ffbc 0dc9 a6bc
00000110: b523 0a3d 8651 9cbb 2b78 10bd a134 80bd
00000120: cfc3 afbd 030e 65bc 03a1 67bd f17d dabc
00000130: a090 cebc 1bfd 9ebd 6ed6 6ebd 6a6b 023d
00000140: 0d77 29bd ca8e 223c 4ed0 a3bd ec01 23bd
00000150: 709b 63bd b7d7 1cbb f7e7 c0bd 01b7 513c
00000160: a969 09bd 1790 04bd 1841 c73d ab94 c63c
00000170: 39a0 e73a f561 9a3c 313e 1cbd ee22 20bd
00000180: 7d76 49bd b283 7fbd 5986 e1bb 24d4 62bd
00000190: 4586 20bd bca5 923d 157c 9bbc 2325 c8bd
000001a0: 243a 6ebd 2f64 3cbd 244b acbd 689d ddbd
000001b0: 0187 25bd 44dd 203d bbbb 5abc 7534 8cbc
000001c0: a8ab 553c 2f7d f83c 0b20 a33d f22a 0cbe
000001d0: ad11 0bbc 060d 353d c8d3 c4bd d7f3 72bb
000001e0: a09a 19be 96c5 4d3c 08d9 9b3d 489c 89bb
000001f0: 9083 463d a97a 88bd fd89 823d 3ca4 023d
00000200: 1a5b 243a b16d 90bd 9c06 e5bc 1670 f03b
00000210: d545 78bd 7307 24bc 8507 043c 7883 e9bc
00000220: 50d4 573d d673 3bbd 42d9 a5bd 0645 df3c
00000230: 8d32 08bc 5335 313d f1dd 15bd 3e58 29bd
00000240: a30e cebc 96d2 a8bb acc6 02be 1f66 0abd
00000250: d78f ff3c a875 653d 29a1 49bd fbe6 9bbd
00000260: 3804 c3bd 6022 053d c973 f7bc b831 a2bd
00000270: bed8 2abd 1dee 8bbd 8501 70bc 308e 183c
00000280: 0869 fd3d f6f5 433d ba84 3cbb 6009 293c
00000290: 33ae 59bc f664 2cbc d6f0 6ebd 5437 cfbc
000002a0: 2dfc 9cbd 4a3a 92bb b8df 65bb ac28 813d
000002b0: 1770 fd3c bdee d6bd cac2 f53c 0aef 403c
000002c0: 58d3 51bd c09b c73c cc08 ae3c d617 06bd
000002d0: 56f8 77bd 3150 b23c 2aba 17bd 3e96 053d
000002e0: 6848 213d 983a c8bc 605d f83b 37be 193d
000002f0: b1c6 993b a0cd 57bd 1c9f 33bd 1902 fabc
00000300: f1cf 26bc df18 be3c 51e9 66bc 4e53 33bd
00000310: 4f13 7c3d f74f 20bd 9ff7 26bd 691c 87bd
00000320: 47f7 17be 9090 88bd 8e1c b1bc e838 8e3d
00000330: ee75 0e3c 823d 8b3c e0d8 353b 9001 333c
00000340: 7a06 e1bd 4ff1 e4bc 4fc4 483d 96ef f0bd
00000350: 156f 5b3d 63c5 2a3d 33e0 42bd e0ed 99bd
00000360: cfe9 0a3d 29af 3fbd 2998 a1bd 3411 303b
00000370: 3415 a4bd 9642 e63b 75ac b0bd 7566 94bd
00000380: ce9e 783c 1e7d 3d3b c335 fa3c 7143 8a3d
00000390: 0fce 19ba 7a2b 8abd 0c53 913d 0b9c 653c
000003a0: c226 37bc edc7 a53c 55a6 35bd b6a0 503c
000003b0: 264c 54bd 7082 053c 2e6f 8d3c d622 1f3c
000003c0: eaab 3abd bd0e d0bc 8faa a7bd fa07 913c
000003d0: 2711 26bd d8eb 00be 4664 25bd 47af 72bd
000003e0: abf4 78bc 352d 8a3d 83bc 01be e841 df3c
000003f0: 1c46 abbc 4832 d73b 3b58 57bd a051 a5bb
0.059185978 0.027081644 0.043463107 0.073944986 -0.0054848734 -0.06816554 -0.031036032 -0.014202601
-0.009489179 -0.047553737 -0.061846066 -0.0385684 0.04654622 -0.030634869 0.00018919539 0.0626825
-0.04712616 0.007500089 -0.05783807 -0.056592517 0.037739746 0.010271782 0.023055162 -0.040363684
-0.047667537 -0.061285045 0.009251481 0.011475258 -0.10944432 0.0039119297 -0.04945912 0.0002448495
0.014054124 0.027667426 0.02110836 0.028517047 -0.039106715 0.00044306202 -0.014574979 0.009018421
0.005641691 0.051067237 0.007887341 0.034052383 0.044142704 0.020743959 0.00701595 -0.03263506
-0.00833726 -0.016303219 -0.010584485 0.010374028 -0.03874208 0.0041858666 -0.09703453 -0.029824058
-0.061802503 0.009156605 0.0037487734 -0.007815972 -0.108180694 -0.0020884087 0.0066624084 -0.10511778
0.023611128 -0.013941078 -0.031147417 -0.02035954 0.03372546 -0.0047704605 -0.03527085 -0.06260038
-0.085822694 -0.013980391 -0.056550037 -0.026671382 -0.025215447 -0.0776312 -0.058309965 0.03184072
-0.0413733 0.009921739 -0.07998715 -0.039796755 -0.05556816 -0.0023932287 -0.09419244 0.012799979
-0.03354803 -0.032363977 0.097292125 0.024240812 0.0017671651 0.018845538 -0.038145248 -0.03909581
-0.049185265 -0.062381454 -0.0068824706 -0.055378094 -0.03919055 0.071605176 -0.018980065 -0.09772708
-0.058160916 -0.04599398 -0.084127694 -0.108210385 -0.040411953 0.039273515 -0.0133504225 -0.017114857
0.013041414 0.03033313 0.07965096 -0.13688257 -0.008488101 0.044201873 -0.096107066 -0.003707161
-0.15000391 0.012559315 0.07609755 -0.0041995384 0.04846531 -0.066640206 0.063739754 0.031894907
0.00062696787 -0.07052172 -0.027957253 0.0073375804 -0.060613472 -0.010011542 0.008058433 -0.028505072
0.05269271 -0.045764767 -0.08098079 0.027254593 -0.0083128335 0.043263745 -0.036588613 -0.04134392
-0.025153464 -0.005152057 -0.127711 -0.033788797 0.031196518 0.05602041 -0.04922596 -0.076124154
-0.09522289 0.032503486 -0.030206578 -0.07919639 -0.041710608 -0.06832526 -0.0146488 0.009311244
0.12373549 0.04784199 -0.0028765635 0.010317177 -0.013286161 -0.010522118 -0.058335148 -0.025294937
-0.07665286 -0.004462515 -0.0035075974 0.06306586 0.030937238 -0.104947545 0.03000011 0.011775741
-0.051226944 0.02436626 0.021244429 -0.032737575 -0.060539566 0.021766754 -0.037042774 0.032613985
0.039375693 -0.024442002 0.0075794905 0.03753492 0.0046928753 -0.052686334 -0.04385291 -0.030518578
-0.010181413 0.023205219 -0.014093713 -0.043780617 0.06154185 -0.03913876 -0.040763494 -0.06597216
-0.14840423 -0.06668198 -0.021620061 0.06944448 0.008695109 0.016997103 0.0027747676 0.0109256655
-0.109875634 -0.027947096 0.04901534 -0.117644474 0.053572733 0.04169215 -0.047577094 -0.07516074
0.033914384 -0.046797905 -0.0789035 0.0026865723 -0.08011857 0.0070269806 -0.086266436 -0.07246105
0.015174581 0.0028913687 0.030543214 0.06751145 -0.0005867192 -0.06746574 0.07095918 0.014014254
-0.011178674 0.020236934 -0.04434808 0.012733629 -0.051830433 0.0081487745 0.017264929 0.009712895
-0.045574106 -0.025397653 -0.08186828 0.017703999 -0.0405437 -0.12589967 -0.04037883 -0.05924919
-0.015195052 0.06746904 -0.12669568 0.027253106 -0.020907454 0.0065672733 -0.052574378 -0.005045131

bn1.running_mean f4 [512]
00000000: b37f a941 6eda 81c1 3897 cdc1 1610 4e41
00000010: 4111 30c1 9706 abc1 299a 0bc2 3e22 0542
00000020: 8417 dcc0 40a5 0c42 bd2d c540 e1e6 4fc0
00000030: 8fb9 04c2 0491 4640 65b0 24c1 dc1d ac3d
00000040: 05b5 b5bf 9dcf e5bf 5826 003d c5ab 94bf
00000050: 05a5 a241 38ea 8941 f20e 3c41 a854 9dc1
00000060: 7725 af40 617c d4c1 691c b441 6a3a 3941
00000070: 2157 5dc0 0010 0ac2 4e1e 363f f5f8 8841
00000080: 77b5 4b41 b054 05c2 de3d 6341 c9f5 dbc1
00000090: a952 28c1 ff4d 29c1 53e7 b1c1 4ae4 8fc1
000000a0: 1935 44c1 5c87 3b40 e053 7141 7799 f7c1
000000b0: 9faa e6c0 a452 c0c1 1e56 aa41 37d4 9a41
000000c0: e71b 1f41 ad49 b8c1 94a6 95bf 9c3c 0a42
000000d0: 7da7 9e40 5bb1 ce40 2706 2141 dcc4 1841
000000e0: f015 1dc1 0f9a 8cc1 15ea e440 fb28 bbc1
000000f0: 2836 1cc0 313e 2041 6d14 a641 3d03 a2c1
00000100: a7d0 35c1 1719 bac0 439b c9c1 cae7 94c1
00000110: 006d 413f 8a7f a240 6b96 4541 a517 7dc1
00000120: c5b0 a641 87c8 ccc0 d7de 06c2 db75 9541
00000130: f6f2 4e41 859b cfc0 7bcb 87c1 ba7d 0b41
00000140: 7348 90c1 0200 d6c1 598d 0b41 f4e5 8841
00000150: 07ee 5341 f568 8441 0b49 893e c9d6 0e41
00000160: e334 c1c1 3eb5 9cc1 a033 4c41 dfec cb41
00000170: df2c d5c1 f4af 91c0 10a1 1342 091e aa41
00000180: f4b5 7941 afc9 2ac1 c8b7 06c1 bc91 bd41
00000190: f7e6 613f 0a9a 2b42 83c8 1341 bae6 21c1
000001a0: aa80 6b40 0a33 a5c1 2034 f3c1 b878 54c0
000001b0: 5ecb a941 a0c2 8141 4718 6740 1710 3741
000001c0: ca70 1bc0 ff0c 48c0 581d 9140 a0ef 2cc2
000001d0: c0ac 2942 cbb4 2741 181e 4941 0ace b141
000001e0: 5c54 9841 1354 ee40 a966 59c1 e642 9141
000001f0: d298 a941 16a5 d241 cb0d 8840 10e0 03c1
00000200: 6208 dd40 b7b8 51c1 9f43 08c1 b861 1d42
00000210: fae6 b0c1 75f4 0941 d39e d7c1 05e2 14c0
00000220: d156 3fc0 b3a4 9741 36a7 32c1 ade6 f441
00000230: 5fd2 96c1 002c 8041 ed60 6541 ff2d b641
00000240: 21d9 3cc1 8b5a 1fc0 25a9 3f41 50ff 7e41
00000250: fbad 8a41 6c8a 8841 f477 3541 53fc 2d41
00000260: c572 59c2 32c8 d1c1 caaf aac0 381c 2c41
00000270: 3e54 7241 a3c6 20c0 4303 2d41 0de9 3cc1
00000280: 30ee 3942 be89 0f42 0461 25c2 1470 46c1
00000290: 617f 8141 8cc8 17c0 7432 01c2 f7d6 bac0
000002a0: feae cf41 a7da 7b41 63d7 abbf f1ff da40
000002b0: 3c5f b041 f391 f5c1 fb0f 10c1 4a3f f440
000002c0: a4eb f541 e272 f841 a917 5541 4447 b041
000002d0: 870e e0c1 c163 05c2 aed3 e141 6050 a241
000002e0: 722e 1c42 16e0 4941 c6b0 ae41 4e9b 12c2
000002f0: 7352 2841 7fb3 b6c0 b620 7dc0 c0bf c9be
00000300: 37db 5141 f1f8 6441 6f5c 89c1 8c37 dfc0
00000310: 5114 f941 8226 4840 6098 fac1 6579 1240
00000320: 29c0 913e 353c 51c1 15d3 0dc0 6f04 b741
00000330: e09e 6940 56b2 2ec1 7c3a e9c1 168e 393e
00000340: bdf1 03c2 01eb 9b40 1077 d141 4c08 01c1
00000350: bd3d ef41 c2f1 f6c1 4912 95c1 6080 03c1
00000360: 1f11 ba41 1d03 2740 67fa 2ac1 f8c7 ff40
00000370: ac24 6841 d885 8641 ae76 db41 00a8 d440
00000380: 7fac 4dc0 b355 a741 4a67 1841 7381 d141
00000390: 2e3a cec1 abd9 62c1 daf2 e341 0b6e 36c2
000003a0: 97ab b041 752e 9241 31f3 73c1 59ba e83f
000003b0: eed6 63c0 b634 9c41 7d57 5c41 1d2d a341
000003c0: a42a e7c0 fe6f 3f41 4d15 fb41 db0c 843f
000003d0: 6cd9 5741 df19 a741 3002 9f40 0dba 4740
000003e0: 3a4e b141 50cd a4c1 1270 2342 38cd 2ac1
000003f0: f151 ce41 93b2 27c2 3218 0341 94bf d1c1
21.187353 -16.231655 -25.698837 12.878927 -11.004212 -21.378218 -34.900547 33.28344
-6.8778706 35.161377 6.1618333 -3.2484667 -33.18121 3.102601 -10.293065 0.08404133
-1.4195868 -1.7953984 0.031286567 -1.161492 20.330576 17.239365 11.753649 -19.666336
5.4733233 -26.560732 22.513872 11.576761 -3.458443 -34.515625 0.7113999 17.121561
12.731803 -33.332703 14.202604 -27.495012 -10.520181 -10.581542 -22.237951 -17.98647
-12.262963 2.9301367 15.082977 -30.949934 -7.208328 -24.040352 21.29205 19.35362
9.944312 -23.035975 -1.1691461 34.55919 4.9579453 6.45915 10.064002 9.548061
-9.817856 -17.575224 7.1535745 -23.39501 -2.4408054 10.015183 20.759974 -20.251581
-11.3634405 -5.8155627 -25.200811 -18.613178 0.75556946 5.0780687 12.349223 -15.818273
20.836313 -6.3994784 -33.717617 18.682547 12.934317 -6.4877343 -16.974356 8.718195
-18.035376 -26.750004 8.722009 17.112282 13.245612 16.551249 0.2681354 8.927438
-24.150824 -19.588497 12.762604 25.49066 -26.64691 -4.5527287 36.907288 21.264666
15.606922 -10.674239 -8.419868 23.69616 0.8824305 42.90043 9.236453 -10.11883
3.679728 -20.649921 -30.400452 -3.319868 21.2243 16.220032 3.6108568 11.441428
-2.428759 -3.1257932 4.534832 -43.23401 42.4187 10.481639 12.569847 22.225605
19.041191 7.447763 -13.5875635 18.157665 21.19962 26.330608 4.2516837 -8.242203
6.9072733 -13.107596 -8.516509 39.34543 -22.112782 8.622182 -26.95255 -2.3262951
-2.9896739 18.95542 -11.165823 30.612635 -18.85272 16.021484 14.3361635 22.772459
-11.80301 -2.4899013 11.978795 15.937332 17.334951 17.067589 11.341785 10.874103
-54.36208 -26.222752 -5.3339586 10.756889 15.145567 -2.5121238 10.813296 -11.806897
46.482605 35.884514 -41.34474 -12.402363 16.187197 -2.3716154 -32.29927 -5.838741
25.960445 15.740882 -1.3425106 6.843743 22.046501 -30.696264 -9.0039015 7.6327257
30.740059 31.056095 13.318276 22.034798 -28.007093 -33.347416 28.22836 20.289246
39.045357 12.6172085 21.836315 -36.651665 10.520129 -5.709411 -3.9551215 -0.39404106
13.116019 14.310777 -17.170134 -6.9755306 31.13492 3.1273503 -31.324402 2.2886593
0.2846692 -13.077199 -2.2160084 22.877165 3.650322 -10.918539 -29.153557 0.18120608
-32.986073 4.872437 26.183136 -8.064526 29.905146 -30.868046 -18.633928 -8.218842
23.25836 2.609565 -10.686133 7.9931602 14.508953 16.815353 27.43295 6.645508
-3.2136533 20.916845 9.525217 26.188208 -25.778408 -14.178142 28.49358 -45.607464
22.083784 18.272684 -15.246873 1.8181869 -3.5599933 19.525738 13.771359 20.397028
-7.223955 11.964842 31.3854 1.0316423 13.4905815 20.887632 4.969017 3.1207306
22.163197 -20.60025 40.859444 -10.675102 25.79001 -41.92439 8.193407 -26.218544

bn1.running_var f4 [512]
00000000: 594b 1341 7a5a eb40 a4ae 1f41 58fb 2041
00000010: 0899 0241 0ef2 3141 c12a 8041 e2d3 3041
00000020: 249f 2641 90e3 0c41 1b00 0c41 c0cf c740
00000030: 663d 5e41 ef0b 2c41 cf77 4b41 ebaf 0541
00000040: bf41 fb40 3d5d f040 bb41 e940 7cdd fb40
00000050: 8a3e 2741 8f2e 2c41 816c f240 b06c 1141
00000060: 6f8b 2941 4b34 0041 34b2 5641 6446 9d40
00000070: 0d91 5041 00de c240 ad92 6641 26c7 1441
00000080: 3422 c440 bb2e 2841 3eed 3841 d5b3 0f41
00000090: ed30 7a41 ede4 6641 06fa 3141 c363 1041
000000a0: 7144 c840 98a8 b040 0f85 d540 ebeb 0a41
000000b0: 3496 1e41 03e0 0341 4f56 4841 cedb 5241
000000c0: 737c 0741 734e 7141 ae9d 0e41 3aaa 5441
000000d0: 9c8d c040 28a5 2641 3058 1141 04ce 2b41
000000e0: 7fb2 7241 a8b6 5541 22f4 0f41 1284 0041
000000f0: ae6d 0941 ff50 3341 e812 1041 5546 fc40
00000100: 043f f640 379e cf40 3830 f240 0278 4041
00000110: 0460 2d41 c298 0a41 9d67 3b41 4d1b 1b41
00000120: 7627 7241 8f11 d840 26a6 2841 6c0f 0041
00000130: d714 cd40 2e08 2241 9d65 d940 e4f3 0d41
00000140: 01c6 c740 4f96 e240 3197 f140 15a3 b940
00000150: 1990 0941 5aa2 0041 df68 0641 0134 5341
00000160: fa69 f240 b462 9341 7e11 1741 15f8 2841
00000170: e2fe 3a41 5ecf 3741 e01e 8c41 b09f 2341
00000180: 3021 0041 c00d 1c41 edad 4141 682c 2141
00000190: 8d27 1541 4bf9 7341 513a 3041 fdd0 4041
000001a0: 0fa5 1441 3ac3 5c41 9285 2341 1dcd 4441
000001b0: 59e2 fe40 6f1d f440 2ac8 6341 5b6b 0441
000001c0: 77f2 3c41 5eb0 0541 a16b c340 356b fe40
000001d0: 9383 1a41 5b17 fe40 0a86 5841 04cf 1941
000001e0: e75a 4e41 8e73 3841 0f6c 4841 0905 ea40
000001f0: 1a87 3341 8a67 2c41 181c cc40 5ee6 1d41
00000200: 8d2e 0041 6a1c 2541 ce4c 3641 e134 9841
00000210: 421e 3c41 9c05 a340 bd9e e440 0d7a 3541
00000220: 12cd 0141 a6ca de40 3b1d 1041 f791 4641
00000230: 3247 2641 ba13 6441 e7b7 0841 e27f 3f41
00000240: 518a 0341 20a8 f640 82e9 3041 10bf 3441
00000250: 82f4 0b41 7b77 4541 e65a 0b41 0096 3f41
00000260: cd58 6841 9354 fa40 e33e ed40 7a78 bc40
00000270: 8970 1341 5b7b 1e41 1366 ee40 36e3 0b41
00000280: 1529 9141 8de0 5a41 264e 1841 baa6 4241
00000290: a37e 3b41 87e8 2941 94a3 2f41 55e7 d240
000002a0: b2fe 6341 4892 0941 8820 4a41 b566 fd40
000002b0: b63c b340 d6df 3141 0df9 1341 2db1 3841
000002c0: fc7d 8741 1cc9 1d41 f21b 1941 c4ef 1041
000002d0: ab23 a241 0d8c e540 9846 2641 ad03 0d41
000002e0: b132 6141 4ad0 0341 f13c 4241 5957 2841
000002f0: e7ff 3041 ed18 1641 86f2 de40 c72c ed40
00000300: a336 cc40 6c47 0641 a055 2441 3dfa 1c41
00000310: aa5b 7241 db3f 0241 15da 0441 d88c db40
00000320: 4ef3 ef40 562d a140 8acb e840 1a91 cf40
00000330: ce99 e140 b70a 1741 ba6f 2741 c9bd b240
00000340: ce63 3b41 ee25 1341 472e 0941 5c69 1941
00000350: dfb9 6041 7707 5a41 4c34 0341 54a7 4141
00000360: 13c3 ca40 6163 c440 d6c0 0f41 438d 2641
00000370: be31 0f41 62d3 2041 c9d8 2c41 f5a1 0b41
00000380: 440c e740 172c dc40 e7c9 c640 2bff 4f41
00000390: 68c9 5241 34e9 a341 7917 3c41 b5a7 5041
000003a0: 170d 3241 f15d 0141 8774 c240 04aa 2541
000003b0: ff5a 3041 09be f340 d517 3741 9520 a441
000003c0: 5303 0341 b711 1f41 38d7 4041 e978 4041
000003d0: 9478 0441 27a5 2e41 632d 6d41 3488 b140
000003e0: 4fdf 4c41 d61a d940 e1b4 6641 c7bf ce40
000003f0: ffc9 8241 d08d 9541 9e72 1141 bcba 0a41
9.205895 7.3547945 9.980137 10.061363 8.162361 11.121595 16.020876 11.051729
10.413853 8.805557 8.750026 6.24411 13.88999 10.752913 12.71675 8.355449
7.8517756 7.5113816 7.2892737 7.8707867 10.452768 10.761367 7.575745 9.089035
10.596541 8.012767 13.418507 4.9148426 13.035413 6.0895996 14.4108095 9.29862
6.129175 10.511409 11.55792 8.981404 15.636945 14.43089 11.123541 9.024356
6.2583547 5.5205803 6.6724925 8.682597 9.911671 8.24219 12.521071 13.178663
8.467883 15.081653 8.913496 13.291559 6.0172863 10.415321 9.08403 10.737797
15.168578 13.357094 8.997103 8.032244 8.589277 11.207274 9.004616 7.8835855
7.6951923 6.4880633 7.568386 12.029299 10.835941 8.662294 11.712796 9.694165
15.134634 6.7521434 10.540564 8.003765 6.408794 10.126997 6.793654 8.872044
6.2429204 7.080848 7.549706 5.8011575 8.59768 8.039637 8.400603 13.200196
7.5754366 18.423195 9.441771 10.560567 11.687227 11.488127 17.515076 10.226486
8.008102 9.753357 12.104962 10.073341 9.322156 15.248363 11.014237 12.051023
9.2902975 13.797663 10.22011 12.3000765 7.9651303 7.628593 14.236368 8.27621
11.8091955 8.355558 6.1068883 7.950587 9.657123 7.940351 13.532724 9.613041
12.897193 11.528212 12.5263815 7.3131146 11.220484 10.775278 6.3784294 9.868742
8.011365 10.319437 11.393751 19.02582 11.757387 5.0944347 7.144377 11.342298
8.112566 6.9622374 9.007136 12.410636 10.392382 14.254816 8.544898 11.968721
8.221269 7.708023 11.057009 11.296646 8.747194 12.34167 8.709692 11.974121
14.52168 7.822824 7.4139266 5.8897066 9.214974 9.905116 7.44996 8.742971
18.14506 13.679822 9.519079 12.165705 11.718417 10.619269 10.977436 6.590739
14.249681 8.598213 12.632942 7.9187875 5.601161 11.117147 9.248303 11.543256
16.936516 9.861599 9.569323 9.058537 20.267416 7.173346 10.392235 8.813397
14.074876 8.238352 12.139878 10.521325 11.062476 9.381085 6.967105 7.411716
6.3816695 8.392437 10.270905 9.811093 15.147379 8.14059 8.303243 6.860943
7.4984503 5.036784 7.274846 6.4864626 7.050025 9.440116 10.464777 5.585667
11.711866 9.19676 8.573798 9.5882225 14.045379 13.626822 8.200268 12.103352
6.336313 6.137131 8.984579 10.409488 8.949644 10.051607 10.802926 8.72704
7.2202473 6.880382 6.2121463 12.999797 13.174171 20.488869 11.755731 13.040944
11.128196 8.085435 6.0767245 10.354008 11.022216 7.6169477 11.443318 20.51591
8.188312 9.941825 12.052544 12.029519 8.279438 10.91532 14.823581 5.5478764
12.804519 6.784526 14.41916 6.4609103 16.34863 18.694244 9.090483 8.670589

fc2.weight f4 [256, 512]
00000000: 8dce 28bc ecac 9fbd e7c4 25bd 5f86 443d
00000010: 4797 98bd dbd2 87bd 89b1 0cbd 7598 693d
00000020: 758e 083d 1ae5 663d 2af1 043c fcef 86bd
00000030: d2eb 38bb 7b24 91bc ae2d 653d ac08 93bb
00000040: 029e f3bc 89ab 0abd 44f2 9eba eb36 b03d
00000050: d543 92bc d8f1 d4bd 60af a8bc b236 19bd
00000060: cd0e 21bd 69de 70bd 1f03 113d 2beb f83c
00000070: a39d e13c 2e68 b53b 5e7e 5a3d 40a0 24bd
00000080: d56e 83bd ff42 be3b b671 1bbc 77b4 26bc
00000090: a75c 02bc 64b4 32ba d116 3abd 070c 84bd
000000a0: 568c 7ebd d07c 8b3d fd95 c03a b81f 6b3d
000000b0: 8d07 df3d ef1d c0bc a45b b0bd 9c4f 123b
000000c0: 371e 523c 4f94 23bd ee5b 3abb 133c 97bd
000000d0: e0ab 30bc f49a 423b 624b a7bc 0b08 a13d
000000e0: f7a7 e43d fb49 0cbb 1217 d43c a9af 50bd
000000f0: fae4 1e3d e580 c23c 705a bfbc 1971 ec3b
00000100: 23d7 b5bc 82bc 5ebb 54a5 e5bd cda1 42bd
00000110: e2bb 9cbd f4e3 3cbd 1ebc 613d 7715 b8ba
00000120: 1b8a d83b ad03 b2bd 5fac b83d dbbc 7d3d
00000130: 5316 d7bc a503 9f3d adbf ec3b bc3d 61bc
00000140: d7a3 5abc 3961 89bd ef55 71bd 1ac9 10bd
00000150: 7e60 09bc fef1 a33d 3dad c8bc b7bf edbc
00000160: 1023 d5bc 07de cdbd c747 e03d 810e 003c
00000170: 3a14 97bc 6236 95bd a57d 7a3d 023e 8f3c
00000180: 2c23 1fbd dce5 083d a44a b93d 0a28 9dbd
00000190: 7e51 67bc 3042 17bd ca54 7b3d 54c0 163d
000001a0: f31d b639 fa88 3bbc a646 4ebd 8a87 eabc
000001b0: d0b5 023e 624c c43c bf5d ff3c 7548 91bd
000001c0: df5a 373d c97b 5ebd 782e eb3c ff38 e23c
000001d0: a541 f7bb e558 ec3a 203b 52bc 463f adbc
000001e0: 5166 81bc 71e5 893c 0ee4 763c b367 00bd
000001f0: bf65 78bd 8a83 1ebd f94e 133d 762a 32bd
00000200: 3fc3 0fbd b6c0 cfbd 2b10 233d 4aa6 0b3d
00000210: 83f2 9fbc 1b4d a8bb 99c8 0cbd 964d 60bd
00000220: ce3c 91ba 030f f93c 772c f5bd b4ed ccbb
00000230: 1780 06bd 68f6 a13d 6d2f 50bd 58d7 983d
00000240: 2f23 4cbd f914 3a3c 2a81 3bbd 5050 663d
00000250: 1439 54bd 8046 52bd c844 0abd a187 3bbb
00000260: 16cf bcbc 48ff 68bd 8eb6 553c e8dc 83bd
00000270: 1907 92bd f3e4 f33c 0ce6 5c3c dfaf c4bd
00000280: 0a79 8bbd cab7 52bd f7da 19bd 87ce 1d3d
00000290: f6c2 d0bb b2c2 883b 28a4 a3bd 7302 b63c
000002a0: 9c42 1d3c b13b febc f5b1 2dbd 24e5 3dbd
000002b0: d771 cd3c dfe0 74bd 2c13 48bd be8a 33bd
000002c0: 05e0 a53d ea65 f83b 78d1 bcbd bb8d 883d
000002d0: 3361 b2bd 38c0 05bd 5c8c 9d3d 8f07 c43d
000002e0: eddd ab3c 4aa2 3e3d 4d8f 9b3c 281f 66bd
000002f0: 35a2 48bb fea1 2d3d 4e4c 193d ff09 8fbc
00000300: 645f aabd 25ca 2cbd 3423 4c3d dc04 13bd
00000310: 89fc a1bc 2305 3bbc 9422 e93c 55a0 dbbc
00000320: 04ec 963c ad5b c8b8 bc1f 91bd ed5b 8d3c
00000330: 1b62 80bd a44e 5b3b df8b 643c bcf0 953d
00000340: b6b9 4dbd d044 06be e801 0a3d 7925 8abd
00000350: 46e5 d63d 41fa 44bd 2cba 7b3c d1b1 d5bd
00000360: 1138 c7bd ba7c e838 02cc 40bc 4803 f63c
00000370: af0a f9bc a16c b23d a259 d53c 0ed4 063d
00000380: a4f7 f7bd 8ec1 cfbc b925 24bd 880d 2e3d
00000390: d7de bcbc 0954 fc3c d794 313e 3c95 14bd
000003a0: 58e5 523c 8e5c cc3c a848 eb3c d058 ba3b
000003b0: df77 213d 653c a83b 0199 71bd 6573 5bbb
000003c0: cb4c 48bd 3533 a1bc b02e 463d eba9 883b
000003d0: bc55 b03d 3098 2e3c 45c3 9b3c dcac 533c
000003e0: 62b7 9bbc d771 df3a 6295 9fbc dd54 61bc
000003f0: 0b98 1fbc 330f c73d 8a24 433d 3e4c 733c
-0.010303152 -0.07796654 -0.040470984 0.04797971 -0.07450729 -0.06632014 -0.034349 0.05703016
0.033338983 0.056370832 0.008114139 -0.06588742 -0.0028216732 -0.01771759 0.055951767 -0.0044871178
-0.02973843 -0.033854995 -0.0012126644 0.08604225 -0.01785461 -0.103976905 -0.020591438 -0.037405677
-0.039320756 -0.058805857 0.035403367 0.030385574 0.027540987 0.005536101 0.05334317 -0.04019189
-0.06417624 0.0058063264 -0.00948756 -0.010174862 -0.00795666 -0.00068170414 -0.045431916 -0.064476065
-0.062145554 0.068109155 0.0014693137 0.057403296 0.10890112 -0.023451773 -0.08611229 0.0022325283
0.012824587 -0.03993636 -0.0028436142 -0.07384505 -0.010783166 0.002969441 -0.020421688 0.07862862
0.11164849 -0.00214064 0.025889907 -0.050948773 0.038792588 0.023743102 -0.023358554 0.0072156307
-0.022197312 -0.003398687 -0.112131745 -0.047517586 -0.07653023 -0.04611583 0.055111043 -0.0014044483
0.0066082603 -0.08692107 0.09017252 0.061947685 -0.026255762 0.07764367 0.007224998 -0.013747629
-0.0133447265 -0.06707997 -0.058919843 -0.035348035 -0.008384822 0.08005141 -0.024496669 -0.02902208
-0.026017696 -0.10052114 0.109511904 0.007815958 -0.018442262 -0.07285763 0.06115498 0.017485622
-0.038851902 0.033422336 0.0904744 -0.076736525 -0.01411855 -0.036928356 0.061360158 0.036804512
0.0003473606 -0.011446232 -0.050360344 -0.028629083 0.12764668 0.023962203 0.031172631 -0.07093898
0.044764396 -0.05431727 0.028708681 0.027615068 -0.0075456672 0.0018031864 -0.012831479 -0.021148335
-0.015795859 0.016833039 0.015069021 -0.031348895 -0.060643908 -0.038699664 0.035963986 -0.043497525
-0.03509831 -0.101441786 0.03981034 0.034094132 -0.019524818 -0.005136145 -0.034370992 -0.05476149
-0.0011080743 0.030402666 -0.119713716 -0.0062539224 -0.032837 0.079083264 -0.05082648 0.074629486
-0.04983824 0.011357539 -0.045777477 0.056228936 -0.051812246 -0.051336765 -0.033757 -0.0028614777
-0.023047965 -0.05688408 0.013044013 -0.06438619 -0.0713026 0.029772257 0.013482582 -0.09603857
-0.06810196 -0.051444806 -0.037562337 0.038527038 -0.0063708974 0.0041736 -0.07990295 0.022217965
0.0095984 -0.031034322 -0.04240604 -0.046361104 0.025078697 -0.059784766 -0.04884641 -0.043833487
0.08099369 0.0075805085 -0.092196405 0.06667658 -0.087099455 -0.032654017 0.07692787 0.09571754
0.020979846 0.04654149 0.01898923 -0.056182057 -0.003061426 0.042390816 0.037426285 -0.017460821
-0.083189756 -0.042184968 0.04983826 -0.035893306 -0.019773738 -0.011414799 0.028458871 -0.02680985
0.018423088 -9.553819e-05 -0.07086131 0.017255748 -0.06268712 0.0033463622 0.0139493635 0.07321307
-0.050225936 -0.13112187 0.033693224 -0.067454286 0.10492949 -0.048090223 0.015364211 -0.104343064
-0.09727491 0.00011085854 -0.011767389 0.030030861 -0.030400602 0.087121256 0.026043717 0.032917075
-0.121077806 -0.025360849 -0.040075038 0.042493373 -0.023055477 0.03080179 0.17341934 -0.036275133
0.012872063 0.024946477 0.028721169 0.005686857 0.03942096 0.0051341527 -0.058983807 -0.0033485529
-0.04890136 -0.019677738 0.04838437 0.0041706464 0.086101025 0.0106564015 0.01901401 0.012919631
-0.019008342 0.0017047477 -0.019480411 -0.013753143 -0.00974084 0.09719696 0.04764227 0.0148497205

fc2.bias f4 [256]
00000000: b0ea d537 c658 0bb9 0a10 b8b8 a046 f6b8
00000010: 56d1 c8b8 f842 6037 3547 d5b8 bf31 1538
00000020: 89af 58b9 0257 5638 2cae 3138 57b3 1039
00000030: c813 6d38 4c42 e6b8 dc87 5db8 a85b b338
00000040: 0c53 2b38 53cb 91b9 68a2 fc38 14d2 0bb8
00000050: 272c f538 3849 d1b7 fbbf 46b9 aa66 74b9
00000060: f235 e4b8 a16c 4239 4612 c138 906d 55b8
00000070: 8b8a 8138 5463 0d36 9c8f 39b8 ffda fe38
00000080: fa2f 09b9 e6d6 cf39 b036 14b9 1603 0939
00000090: 53dc 9538 9e0d 7139 d61a aab8 3f62 6db8
000000a0: 8a70 4339 477b 99b9 188d 10b9 fe45 e838
000000b0: e040 0d39 92a5 95b8 ff0d ee38 1822 6ab8
000000c0: 4ee2 49b9 1af5 7fb8 d464 e338 cf58 44b9
000000d0: be93 b8b7 2c55 9738 f9b8 3639 7034 7b39
000000e0: 66fb e938 908c 5c39 7273 5db8 6498 3a38
000000f0: ebdd c7b8 98bb 1337 91f1 1438 672d d0b8
00000100: 1dc9 97b9 4784 7bb9 5920 4e38 003b 0c35
00000110: 4b5b 6eb8 910c e0b8 c40e 32b8 ce0d dcb8
00000120: 572e 44b9 fb95 d8b9 fd5a b337 6842 22b9
00000130: d2d5 d638 cc05 29b9 b947 7138 0823 8738
00000140: 18f3 3738 bc79 aeb8 7719 80b9 c5ed 1c39
00000150: 7287 8eb9 5637 6439 9485 0fb7 4456 f6b8
00000160: 5e0f 093a b877 9eb8 840e 52b8 a2b7 98b9
00000170: 7612 0639 f912 3db8 d1a6 ae38 f057 92b8
00000180: 516e 9939 8586 ceb8 6983 56b9 48c2 7e38
00000190: da2f 8738 cc63 8bb9 21cb 8039 34de 1cb8
000001a0: 4dde 0c38 8b7a 6b37 b811 a1b8 2869 4637
000001b0: e000 c539 51a2 8d39 f0f2 8eb5 ca57 f4b8
000001c0: 50ea 07b9 dcb6 beb8 4421 a039 fae4 71b9
000001d0: 79a0 a938 a4ca 7bb9 c087 dc36 31b1 5eb9
000001e0: 12ee 1a38 16c4 a639 8602 a438 cc89 cdb7
000001f0: 408a 9537 aa3c 8a37 82fe 0138 56ef 18b9
00000200: 4e2e 05b9 a1de 8439 be2e 11b9 6529 b5b8
00000210: 0857 f3b7 9c03 3738 1ee5 39ba 6e84 75b8
00000220: bf6e 2e39 5cdb 20ba 2d72 0638 b1ad 99b9
00000230: 8570 8bb7 2c7e e1b8 a737 42b8 bdb2 37b8
00000240: b844 0b39 4c2f 8339 efe1 a138 3a63 cfb8
00000250: 3558 9d39 e2bf 7039 f02f 01b9 8a76 a037
00000260: 796c 44b9 8056 5835 f0f7 b9b6 39a4 7c39
00000270: 360f f037 7334 ec36 c49d 4739 2a6a b738
00000280: 4ec6 8237 b89b f837 fe7d 7939 4c11 d138
00000290: a985 48b8 3320 9038 58f7 ef38 af84 aa39
000002a0: b883 fb39 278d 82b9 8ef9 85b8 5ae8 21b9
000002b0: 6075 4d39 94e7 ca39 cc50 0439 3df5 cd39
000002c0: 359c a937 5418 5939 946a d938 7c6a 22b9
000002d0: 467a 8cb9 a003 80b6 9bcd 3fb9 f843 99b8
000002e0: d002 40b9 2822 b5b9 914b 2338 12c1 133a
000002f0: 4da1 8938 7f8f ca39 7a5a 45b9 be30 1a38
00000300: 30fd 8bb7 32e3 0639 a632 19b9 932e 4eb9
00000310: 555f 7639 e470 9439 5676 c0b8 9022 c8b8
00000320: c991 2339 3015 7737 a7f1 06b9 ed22 b738
00000330: 8ed2 0d38 47ea 0a39 c481 9139 5c36 6eb9
00000340: f264 86b8 385b 7138 4973 8439 66c1 a939
00000350: 34ef 87b8 5aa8 6439 6011 b2b8 c6c0 e7b8
00000360: b8c7 f1b7 7f70 cab8 d448 9cb8 2a00 04b9
00000370: 2bae 66b9 d4f9 41b8 ed53 a0b9 5015 7338
00000380: c764 9b39 784a 5cb7 3063 5439 235b 90b8
00000390: 868d a3b8 7ce7 bc37 79b1 0339 b0cc 43b6
000003a0: d33c 2d39 a076 9d38 cc00 9437 b804 c438
000003b0: 69fb 0f39 44ed c3b9 8eca 7eb8 4e5a 2239
000003c0: f988 92b8 3319 b4b9 eab8 14b9 a735 ea38
000003d0: de19 b838 9039 8138 5c00 d538 d404 5db8
000003e0: 4104 1db8 64f2 2fb8 8fa3 80b9 dc04 d538
000003f0: 72e2 dfb8 c629 d2b8 4804 83b8 8ac9 1136
2.5500864e-05 -0.00013289144 -8.776791e-05 -0.00011743349 -9.575735e-05 1.3367033e-05 -0.00010169895 3.5570698e-05
-0.00020664757 5.110261e-05 4.23623e-05 0.0001379972 5.6523626e-05 -0.000109796034 -5.2817035e-05 8.5524574e-05
4.084692e-05 -0.00027808044 0.00012046547 -3.3335833e-05 0.000116907344 -2.4948837e-05 -0.0001895427 -0.00023307899
-0.00010881935 0.00018541749 9.206361e-05 -5.0885195e-05 6.177005e-05 2.1068454e-06 -4.4241184e-05 0.00012152455
-0.00013083211 0.00039642229 -0.00014134753 0.00013066488 7.145912e-05 0.00022988624 -8.11123e-05 -5.6596702e-05
0.00018638573 -0.00029274283 -0.00013785472 0.00011075659 0.00013470976 -7.1357135e-05 0.00011351331 -5.58217e-05
-0.00019253159 -6.1025006e-05 0.00010842984 -0.000187251 -2.2003307e-05 7.2161056e-05 0.0001742578 0.0002395676
0.000111571324 0.00021033199 -5.2798023e-05 4.448778e-05 -9.530395e-05 8.80556e-06 3.5510926e-05 -9.92667e-05
-0.00028950805 -0.00023986502 4.9144353e-05 5.223992e-07 -5.6828645e-05 -0.00010683493 -4.245226e-05 -0.00010492989
-0.0001870928 -0.00041310475 2.1380833e-05 -0.00015474262 0.00010244142 -0.00016119255 5.7525674e-05 6.443827e-05
4.3857e-05 -8.319641e-05 -0.00024433035 0.00014965895 -0.00027185265 0.00021764389 -8.554565e-06 -0.00011746262
0.0005228425 -7.5563265e-05 -5.008142e-05 -0.00029128516 0.00012786113 -4.507878e-05 8.3280385e-05 -6.978202e-05
0.00029264626 -9.847902e-05 -0.00020457584 6.0739258e-05 6.446215e-05 -0.000265865 0.00024565405 -3.740024e-05
3.3585635e-05 1.4035623e-05 -7.6803786e-05 1.1826203e-05 0.0003757542 0.0002701455 -1.0650529e-06 -0.00011651179
-0.00012961891 -9.093966e-05 0.00030542363 -0.00023068851 8.088438e-05 -0.00024012715 6.5723143e-06 -0.00021237579
3.693818e-05 0.00031808083 7.8205994e-05 -2.4502071e-05 1.7826562e-05 1.647913e-05 3.0993026e-05 -0.00014585009
-0.00012701118 0.00025342873 -0.0001384569 -8.638463e-05 -2.9008384e-05 4.363396e-05 -0.0007091331 -5.8535887e-05
0.00016635189 -0.0006136203 3.2054424e-05 -0.00029311844 -1.6622487e-05 -0.000107523374 -4.6305035e-05 -4.3797063e-05
0.00013281673 0.00025021506 7.719162e-05 -9.8890116e-05 0.00030011093 0.00022959666 -0.00012320257 1.9128685e-05
-0.00018732426 8.0592145e-07 -5.5422934e-06 0.0002409377 2.8617313e-05 7.039454e-06 0.00019036891 8.7458946e-05
1.558955e-05 2.9636416e-05 0.00023793426 9.9691184e-05 -4.7808197e-05 6.872453e-05 0.000114424794 0.00032523784
0.0004797259 -0.000249007 -6.3884174e-05 -0.00015440714 0.00019594049 0.00038700982 0.000126186 0.00039283364
2.021911e-05 0.00020703796 0.00010367218 -0.00015489192 -0.00026793982 -3.8151193e-06 -0.00018291773 -7.308269e-05
-0.00018311595 -0.0003454846 3.8932605e-05 0.00056363747 6.562714e-05 0.00038635355 -0.00018821089 3.6761856e-05
-1.668799e-05 0.00012863873 -0.00014610085 -0.00019663041 0.00023495902 0.0002831287 -9.177315e-05 -9.543181e-05
0.000155992 1.472728e-05 -0.00012869258 8.7326254e-05 3.3813114e-05 0.0001324798 0.00027753238 -0.00022717699
-6.4084204e-05 5.754383e-05 0.00025262896 0.00032378285 -6.481857e-05 0.0002180649 -8.490938e-05 -0.00011050845
-2.882244e-05 -9.6530646e-05 -7.452225e-05 -0.00012588562 -0.00021999392 -4.6247456e-05 -0.00030580108 5.7955564e-05
0.0002963899 -1.31303605e-05 0.00020254846 -6.8834306e-05 -7.7988065e-05 2.251914e-05 0.00012559247 -2.9176408e-06
0.00016521224 7.508439e-05 1.7643346e-05 9.346887e-05 0.000137312 -0.00037370075 -6.0746963e-05 0.00015483165
-6.987336e-05 -0.0003435105 -0.00014183266 0.00011167983 8.778622e-05 6.161921e-05 0.000101566984 -5.2695003e-05
-3.743568e-05 -4.1948995e-05 -0.00024535923 0.000101575366 -0.00010675647 -0.00010021361 -6.247364e-05 2.1723995e-06
